app/src/main/assets/model43_no1.tflite (tflite, 437468 bytes, 28 tensors)

sequential/dense_2/MatMul;StatefulPartitionedCall/sequential/dense_2/MatMul;sequential/dense_2/BiasAdd;StatefulPartitionedCall/sequential/dense_2/BiasAdd f4 [43]
0	0x40495764	3.145959
1	0x40b0d983	5.5265517
2	0x40ab83c7	5.359836
3	0x40b13901	5.5382085
4	0x40944e1b	4.6345344
5	0x40c6a08d	6.2070985
6	0x40afe461	5.4966283
7	0x40af80c1	5.484467
8	0x40a4e201	5.1525884
9	0x4061fe6a	3.5311532
10	0x40586ee2	3.3817677
11	0x409e679c	4.9501476
12	0x40ae6847	5.450229
13	0x40f804ab	7.75057
14	0x3f93abcd	1.1536804
15	0x402bb886	2.6831374
16	0x3f75540a	0.9583136
17	0x3fae194a	1.3601468
18	0x3fe05f20	1.752903
19	0x405acfd8	3.4189358
20	0x40bd4555	5.9147134
21	0x408409ee	4.126212
22	0xbf43ed61	-0.76534086
23	0x4097804a	4.7344103
24	0x3f0a64ef	0.5406026
25	0x40283188	2.6280231
26	0x3f920c27	1.1409959
27	0x3fc87095	1.5659357
28	0x40870945	4.2198815
29	0x402a1de8	2.6580753
30	0x40acef3b	5.404203
31	0x405c5629	3.4427588
32	0x404101cf	3.0157354
33	0x402ae7e3	2.6704032
34	0x40400617	3.0003717
35	0x406acb3a	3.668654
36	0x408b45aa	4.352254
37	0x3f33ea89	0.7027975
38	0x4099aac1	4.802094
39	0x3c501fb0	0.012702867
40	0x4076ade0	3.8543625
41	0x40910d8f	4.532905
42	0x40a2bfdb	5.08592

sequential/dense_1/MatMul;StatefulPartitionedCall/sequential/dense_1/MatMul;sequential/dense_1/BiasAdd;StatefulPartitionedCall/sequential/dense_1/BiasAdd f4 [128]
0	0x405f6571	3.4905665
1	0x4045217e	3.0801692
2	0x402f3393	2.7375228
3	0x400c3694	2.1908312
4	0x3fdfa6e9	1.7472812
5	0x3fa5f830	1.2966366
6	0x404c2efb	3.1903675
7	0x401132a4	2.2687159
8	0x402d5e14	2.708867
9	0x4025c55a	2.5901704
10	0x3fbc9eb4	1.4735932
11	0x3f5cabff	0.86199945
12	0x3fa7e1ec	1.3115821
13	0x403c8e75	2.946195
14	0x3ec92632	0.39286953
15	0x40255daa	2.5838418
16	0x3fe6f77c	1.8044276
17	0x3fa3b4df	1.2789572
18	0x40025639	2.0365126
19	0x3fc5948c	1.5435958
20	0x3ff2722c	1.8941092
21	0x3faf5630	1.3698177
22	0x3f47c8e5	0.78040916
23	0x408b0312	4.344125
24	0x3fe47444	1.7847981
25	0x4006a04d	2.103534
26	0x400214f7	2.0325296
27	0x408d3200	4.4123535
28	0xbf163a45	-0.5868266
29	0x40018ae0	2.0241013
30	0x4053283d	3.299331
31	0x4039e9fd	2.9049065
32	0x404bdb88	3.1852741
33	0xbebf963c	-0.37419307
34	0x400952eb	2.145686
35	0x400f0e96	2.2352653
36	0x402ffdf4	2.749875
37	0x3fa32cb4	1.2748017
38	0x400b3061	2.1748278
39	0x3f6039ea	0.8758837
40	0xbea13d3c	-0.3149203
41	0x3fdd1eab	1.7274984
42	0x3fbf0943	1.4924701
43	0x3fa84732	1.3146727
44	0x3f25d3f3	0.64776534
45	0x3fbe54de	1.486965
46	0x3fde2931	1.7356321
47	0x4037ea25	2.873666
48	0x3dd6756e	0.10471617
49	0x3fd568e8	1.667264
50	0x4042d5f3	3.0443084
51	0x3eab1cb0	0.33420324
52	0x3fb4c5ed	1.4122902
53	0x3e17bfb7	0.14819227
54	0x3fc86104	1.5654607
55	0x3fcbc5d0	1.5919743
56	0x406ff99a	3.7496095
57	0x3fa609c5	1.2971731
58	0x401c9346	2.4464889
59	0x4050f0c7	3.264696
60	0xbf5e908f	-0.8693933
61	0x3f651f54	0.8950093
62	0x3ffbcd5f	1.9672049
63	0x403d1ead	2.9549973
64	0x3ff72a28	1.930974
65	0x3ef0c2da	0.4702366
66	0x3e6b3f91	0.22973467
67	0x4017c931	2.3716547
68	0x4054fb63	3.3278434
69	0x3f051f3d	0.5200079
70	0x40914d96	4.540721
71	0x3ea82002	0.3283692
72	0x40338e32	2.805554
73	0x3ff43faa	1.9081929
74	0x3ffe2a74	1.9856706
75	0x3f399253	0.724889
76	0x3f13b87d	0.5770338
77	0x40110724	2.2660608
78	0x40556be3	3.33471
79	0x3edbbaef	0.42916057
80	0x40715374	3.7707186
81	0x4087b3c7	4.2406955
82	0x3ff7f5a7	1.9371842
83	0x40399f9e	2.9003673
84	0x403ce124	2.9512415
85	0x3ee31b94	0.44356978
86	0x40001f04	2.001893
87	0x3f32d932	0.69862664
88	0x3e4fb78a	0.20284858
89	0x40203dce	2.5037723
90	0x3f81732c	1.0113273
91	0x3f7c107d	0.9846266
92	0x3feaae2c	1.8334403
93	0xbe811c21	-0.25216773
94	0x4063aedc	3.5575476
95	0x40168fba	2.3525224
96	0x3f9ee7b0	1.2414455
97	0x3fd6797b	1.6755823
98	0x3f866003	1.049805
99	0x3fc899f2	1.567198
100	0x3fddcce7	1.7328156
101	0x405950b5	3.395551
102	0x3f7fce73	0.9992439
103	0x3fb889a1	1.4417001
104	0x3eddc717	0.43315956
105	0x40266742	2.6000524
106	0x4019e6c7	2.4047105
107	0x40332237	2.7989633
108	0x3f0bda30	0.546298
109	0x3f0eb57a	0.5574566
110	0x4028ffcb	2.6406124
111	0x40039510	2.055973
112	0x4049aa26	3.15101
113	0xc00966c1	-2.1468966
114	0x3ee91d0c	0.45529974
115	0xbe771901	-0.24130632
116	0x3fdfd2dd	1.7486225
117	0x40458e2a	3.086802
118	0x3e074956	0.13211569
119	0x3f43508c	0.7629478
120	0x3d97929d	0.07401011
121	0x3fe7e48e	1.8116624
122	0x3fd0500a	1.6274426
123	0x40215fda	2.5214753
124	0x401c02e6	2.437677
125	0x4082dcfc	4.0894756
126	0x403e5fd0	2.974598
127	0x3f5eb625	0.8699668

sequential/conv2d_4/BiasAdd;StatefulPartitionedCall/sequential/conv2d_4/BiasAdd;sequential/conv2d_3/Conv2D;StatefulPartitionedCall/sequential/conv2d_3/Conv2D;sequential/conv2d_4/Conv2D;StatefulPartitionedCall/sequential/conv2d_4/Conv2D;unknown_24 f4 [32]
0	0xbe3e12a7	-0.18561803
1	0xbd00d3ab	-0.031451862
2	0x3df03086	0.11728005
3	0xbe50fc93	-0.2040885
4	0xbe05f8e6	-0.13083228
5	0xbd96fd06	-0.07372479
6	0xbe2067dd	-0.1566462
7	0xbde31869	-0.1108864
8	0xbd204b23	-0.039134156
9	0xbd33443c	-0.043766245
10	0xbe82883d	-0.25494567
11	0x3d5d051c	0.05395995
12	0xbe9b0b91	-0.30282262
13	0xbd37da81	-0.044886116
14	0xbe04e8c4	-0.12979418
15	0xbc8c6e69	-0.017142491
16	0xbeb535de	-0.3539266
17	0xbe819598	-0.25309443
18	0xbe818b66	-0.25301665
19	0xbeeb7f14	-0.4599539
20	0xbde16bdd	-0.110069014
21	0xbebc387f	-0.36761853
22	0xbe3f25c5	-0.18666752
23	0xbe170781	-0.14748956
24	0xbe68481a	-0.22683755
25	0xbe2bd60c	-0.16780871
26	0xbe7027a9	-0.23452629
27	0xbe3a9369	-0.18220295
28	0xbe521a3c	-0.2051782
29	0xbe7fe782	-0.24990657
30	0xbda8d66d	-0.082440235
31	0xbeb070c0	-0.3446102

sequential/conv2d_3/BiasAdd;StatefulPartitionedCall/sequential/conv2d_3/BiasAdd;sequential/conv2d_3/Conv2D;StatefulPartitionedCall/sequential/conv2d_3/Conv2D;unknown_18 f4 [32]
0	0xbea9ecd9	-0.33188513
1	0xbc819377	-0.015817387
2	0xbea5bd34	-0.32370913
3	0xbd082908	-0.033242255
4	0xbe9f8487	-0.31155798
5	0xbe2cbc92	-0.16868809
6	0xbca5379c	-0.020168118
7	0x3c77c9ca	0.015123794
8	0xbd80c784	-0.062880546
9	0x3dad9840	0.08476305
10	0x3e3a93c8	0.18220437
11	0xbd090178	-0.033448666
12	0x3cab3947	0.020901335
13	0xbd8f3da6	-0.069941804
14	0xbdca49d7	-0.09877365
15	0xbddb9476	-0.10721676
16	0xbed4af6b	-0.41540083
17	0xbe92144f	-0.2853112
18	0xbdba22ed	-0.09088693
19	0xbdf19634	-0.11796227
20	0xbe3521af	-0.1768863
21	0x39dc04e0	0.00041965302
22	0x3da11a85	0.07866386
23	0xbc1c4f45	-0.009540384
24	0xbe4c8fb2	-0.1997669
25	0xbdeda501	-0.116037376
26	0x3ce7e7f2	0.028308842
27	0xbd8db9f6	-0.06920235
28	0xbe8480e1	-0.25879577
29	0xbde51a20	-0.111866236
30	0xbe0a3755	-0.1349767
31	0xbd0fd09e	-0.035111062

sequential/conv2d_2/BiasAdd;StatefulPartitionedCall/sequential/conv2d_2/BiasAdd;sequential/conv2d_1/Conv2D;StatefulPartitionedCall/sequential/conv2d_1/Conv2D;sequential/conv2d_2/Conv2D;StatefulPartitionedCall/sequential/conv2d_2/Conv2D;unknown_12 f4 [16]
0	0xbc8a8fbe	-0.016914245
1	0x3bb276bf	0.0054462845
2	0xbe54f1ed	-0.20795412
3	0x3cd5c119	0.026093053
4	0x3bd232bb	0.006414739
5	0x3d356e61	0.04429472
6	0xbdb22d9f	-0.08700108
7	0xbdbe91b3	-0.09305134
8	0xbd880c00	-0.06642914
9	0x3d59e855	0.053200085
10	0xbda107ba	-0.07862802
11	0xbe44366f	-0.1916139
12	0xbda891ff	-0.082309715
13	0xbdfce60a	-0.12348564
14	0xbe00ccde	-0.1257815
15	0xbe27ced9	-0.163875

sequential/conv2d_1/BiasAdd;StatefulPartitionedCall/sequential/conv2d_1/BiasAdd;sequential/conv2d_1/Conv2D;StatefulPartitionedCall/sequential/conv2d_1/Conv2D;unknown_6 f4 [16]
0	0x3d1b0d03	0.037854206
1	0x3d990818	0.07472247
2	0xbd8650f2	-0.06558408
3	0xbc97a893	-0.018513
4	0x3d4dc571	0.050237123
5	0xbc4d7510	-0.012540117
6	0xbcd0e3f8	-0.025499329
7	0x3caa71c3	0.020806199
8	0x3d14fdf1	0.03637499
9	0xbd0dabfc	-0.034587845
10	0xbb9060b1	-0.0044060578
11	0x3ccfc081	0.025360348
12	0xbb7a10cf	-0.0038156991
13	0xbd28c33d	-0.04120182
14	0xbbb187cc	-0.0054177996
15	0x3d0692a3	0.032854687

sequential/conv2d/BiasAdd;StatefulPartitionedCall/sequential/conv2d/BiasAdd;sequential/conv2d/Conv2D;StatefulPartitionedCall/sequential/conv2d/Conv2D;unknown_0 f4 [8]
0	0x3c44b936	0.012007048
1	0x3d1e5468	0.038654715
2	0x3e10b50c	0.14131564
3	0xbbc4d420	-0.0060067326
4	0xbbfbeb1b	-0.007687939
5	0xbbc4ae6c	-0.006002238
6	0xbc08d13f	-0.008350669
7	0x3d202e6e	0.03910678

sequential/conv2d_4/Conv2D;StatefulPartitionedCall/sequential/conv2d_4/Conv2D f4 [32, 3, 3, 32]
0	0x3ca25f96	0.01982097
1	0x3e1a195f	0.15048741
2	0xbd1336ba	-0.035940863
3	0xbe34ca1f	-0.17655228
4	0xbdeacc64	-0.11464766
5	0x3db94703	0.090467475
6	0xbb714742	-0.0036816155
7	0xbe096c10	-0.13420129
8	0x3d5e9cdf	0.054348823
9	0x3ca2dba8	0.01988013
10	0xbda58153	-0.08081307
11	0x3e21afa1	0.15789653
12	0x3ccd8eeb	0.025092563
13	0xbd44a02f	-0.048004325
14	0x3d43a322	0.047762997
15	0xbb42a4ad	-0.0029700205
16	0x3d0b8dea	0.034070887
17	0x3ba12ce9	0.004918684
18	0x3e1693a1	0.14704753
19	0xbd134106	-0.035950683
20	0x3d26ccff	0.040722843
21	0x3db95e17	0.09051149
22	0x3db5748c	0.0886012
23	0x3e120827	0.14260922
24	0xbd1b7eb2	-0.037962623
25	0xbda1016b	-0.078615986
26	0xbdca0361	-0.09863926
27	0xbdfd6fd0	-0.12374842
28	0xbe09f05f	-0.134706
29	0x3e10c271	0.14136674
30	0x3b205424	0.0024464214
31	0x3cf5df7d	0.030013794
32	0x3d987295	0.0744373
33	0xbd9c6425	-0.076362886
34	0x3da474ae	0.080300674
35	0x3ccfe7bc	0.025379054
36	0x3dea4037	0.11438029
37	0x3ca09a2c	0.019604765
38	0x3dbc241c	0.09186575
39	0xbb318c7c	-0.0027091792
40	0x3b44f0f6	0.003005085
41	0xbd00f82b	-0.03148667
42	0x3cb84a00	0.022496223
43	0x3caa8d62	0.02081937
44	0x3d2bffa2	0.041991837
45	0xbd967be0	-0.07347846
46	0x3d5fe901	0.05466557
47	0xba9a3e9b	-0.0011767925
48	0x3df1052d	0.11768565
49	0xbc2c077a	-0.010499829
50	0x3dfea2fd	0.12433431
51	0xbc53bec3	-0.012923899
52	0x3d578124	0.052613392
53	0xbd607978	-0.05480334
54	0x3d871b24	0.065969735
55	0x3c386316	0.011254093
56	0xbdb1d291	-0.086827405
57	0xbdc93780	-0.09825039
58	0xbe184995	-0.1487182
59	0xbcb910a2	-0.022590939
60	0x3e29f77f	0.16598319
61	0xbd2b7338	-0.041857928
62	0xbcdad66d	-0.026713574
63	0x3dd89156	0.10574596
64	0x3e4daf97	0.20086513
65	0xbc2f2b40	-0.010691464
66	0x3d9f8e54	0.07790819
67	0x3ce8df91	0.028426917
68	0xbe36eec3	-0.17864518
69	0x3dad3eb9	0.08459229
70	0xbdb299ed	-0.08720765
71	0x3d62a030	0.055328548
72	0xbdb70135	-0.08935777
73	0x3d893f6c	0.0670155
74	0xbbea6126	-0.0071526943
75	0xbdc84efa	-0.097806886
76	0xbdd5e4a4	-0.10444
77	0xbccb94c1	-0.024851205
78	0x3d8aa1bb	0.06769129
79	0xbe2dbfd1	-0.16967703
80	0xbd4a17fd	-0.049339283
81	0xbd6bf463	-0.057606112
82	0x3d5fb710	0.05461794
83	0xbdb6cb54	-0.089255005
84	0x3d99eb36	0.07515566
85	0x3d9a3696	0.07529943
86	0x3d11ec47	0.035625722
87	0x3c192e88	0.009349473
88	0xbe09d2ff	-0.13459395
89	0x3d4b249c	0.04959546
90	0xbe2529dc	-0.1612925
91	0x3c0479b9	0.008085662
92	0x3d210c01	0.03931809
93	0xbd4d670d	-0.050147105
94	0xbd586ad5	-0.052836258
95	0xbb1036b9	-0.0022005273
96	0x3d9ea0fb	0.07745548
97	0x3d25612e	0.04037588
98	0xbe07859a	-0.13234559
99	0x3d09b1c5	0.0336168
100	0x3d6b9858	0.057518333
101	0x3c1db11e	0.009624748
102	0xbbeabc2e	-0.007163546
103	0xbda9a50e	-0.08283435
104	0x3d4bf9c2	0.049798734
105	0xbda19dbe	-0.07891415
106	0x3d4e64d0	0.05038911
107	0xbe38ad23	-0.18034796
108	0xbd453f14	-0.04815586
109	0xbd10acf3	-0.035321187
110	0x3c9a77f8	0.018856034
111	0x3dec8806	0.11549382
112	0x3d8933af	0.06699311
113	0x3d5c1ffb	0.053741436
114	0x3e343dc5	0.17601688
115	0xbe55d88e	-0.2088339
116	0x3e1abfae	0.15112182
117	0x3e348273	0.17627887
118	0x3d2d3f73	0.042296838
119	0xbbb8cdab	-0.005639752
120	0xbd91b679	-0.07114882
121	0xbe294a40	-0.1653223
122	0x3d31a84c	0.04337339
123	0xbe47c3f5	-0.19508345
124	0xbd16018d	-0.036622573
125	0x3c5f2360	0.013619274
126	0x3e6106ff	0.21975325
127	0x3c85884a	0.01630034
128	0x3d689232	0.056780048
129	0x3cfdf03d	0.030998344
130	0xbde2c654	-0.11072984
131	0xbd029c6a	-0.03188745
132	0xbd880086	-0.06640725
133	0xbdf5779f	-0.119857065
134	0xbd989603	-0.074504875
135	0xbdbf6f1a	-0.09347363
136	0x3cda9127	0.026680542
137	0x3d38dea6	0.04513421
138	0x3df68aa5	0.12038163
139	0xbdf013bd	-0.11722515
140	0x3b9929ea	0.004674186
141	0xbe1ebdc8	-0.15502083
142	0xbccdcbd6	-0.02512161
143	0xbd360286	-0.044436
144	0x3e444b99	0.19169463
145	0x3caf8d96	0.021429818
146	0x3e307e35	0.17235644
147	0x3d52f267	0.051500704
148	0x3e3a6f5a	0.1820654
149	0xbdf18dae	-0.117946014
150	0x3d0afb33	0.03393097
151	0xbcf91983	-0.030407673
152	0xbe095184	-0.13410002
153	0xbd4ddc5b	-0.050258975
154	0xbd54530c	-0.051837012
155	0xbd809002	-0.06277467
156	0xbddc6c80	-0.10762882
157	0x3e15f6bb	0.14644901
158	0x3c2ff089	0.0107385
159	0x3d916d62	0.07100941
160	0x3beff92e	0.0073234057
161	0xbdf64299	-0.12024421
162	0x3bd7f726	0.0065907417
163	0x3d884f20	0.06655717
164	0x3d99c368	0.07507974
165	0xbe419421	-0.18904163
166	0xbd52f216	-0.051500402
167	0xbc3e3d48	-0.01161129
168	0xbbc0ced1	-0.0058840294
169	0x3d3447e7	0.044013884
170	0xbca0ac00	-0.019613266
171	0xbdc19d1a	-0.09453793
172	0x3d5c5bbd	0.053798426
173	0xbd4089b2	-0.047006316
174	0x3cac12b6	0.021005016
175	0xbe247db1	-0.16063572
176	0x3e732e6e	0.2374818
177	0xbd59af22	-0.053145535
178	0x3c0be70a	0.008538971
179	0xbcf0bb9d	-0.029386336
180	0x3dd75b32	0.10515441
181	0x3d90cdf6	0.07070534
182	0xbe3705e2	-0.17873338
183	0x3bae409c	0.0053177606
184	0xbd520ade	-0.051279895
185	0x3df9e4fb	0.12201878
186	0x3d517459	0.05113635
187	0xbe28569f	-0.16439293
188	0x3d92ccac	0.07167944
189	0xbe03d0d2	-0.12872627
190	0xbd57e9aa	-0.052713074
191	0x3d15863d	0.036504973
192	0xbd888bde	-0.066673025
193	0xbc8932e9	-0.016747909
194	0xbdc4f093	-0.096161984
195	0x3d553b76	0.05205866
196	0x3cafe1d7	0.021469994
197	0x3e331057	0.17486702
198	0x3e2c9f1f	0.16857575
199	0xbe2a12ca	-0.1660873
200	0xbd5326c2	-0.051550634
201	0xbdeb86fc	-0.115003556
202	0xbe3c5d5a	-0.18394986
203	0x3c82fd7e	0.015990015
204	0xbdd0c1d6	-0.10193221
205	0x3e0bd09d	0.13653798
206	0x3d47678a	0.048682727
207	0x3e2c753e	0.168416
208	0x3d3cc584	0.046086803
209	0xbe5c252b	-0.21498553
210	0x3e75f701	0.24020006
211	0xbe5901ef	-0.21192144
212	0x3d7f1095	0.062271673
213	0xbc5c42d2	-0.013443666
214	0xbd5fdec7	-0.054655816
215	0xbe3369af	-0.17520784
216	0xbe0a86bf	-0.13527964
217	0xbc2e9cfa	-0.010657543
218	0xbd3353ce	-0.043781094
219	0xbe2b26d1	-0.16714026
220	0x3d28f59a	0.04124985
221	0xbe9b6d0f	-0.30356643
222	0x3e7d04f7	0.24708925
223	0xbcd9db79	-0.02659391
224	0x3c2856fc	0.010274645
225	0x3da35b86	0.07976441
226	0x3b39ac80	0.0028331578
227	0xbd3653a9	-0.04451338
228	0xbe0aadbd	-0.13542838
229	0xbda10e0e	-0.07864009
230	0x3e06eb12	0.1317561
231	0xbe5c0992	-0.21488026
232	0xbca2538d	-0.01981523
233	0xbdcf0249	-0.10107858
234	0xbdd2bbd6	-0.10289733
235	0x3e45d4b1	0.19319417
236	0x3d6f8a8e	0.058481745
237	0xbd54d92c	-0.051964924
238	0x3def512e	0.11685406
239	0x3da35e1b	0.079769336
240	0x3e2c5cf2	0.16832331
241	0xbdb61a15	-0.088916935
242	0x3e0df76f	0.1386392
243	0xbe00d067	-0.12579499
244	0x3c3985c0	0.011323392
245	0xbce2b92f	-0.027676193
246	0x3dd75308	0.10513884
247	0x3ced24b6	0.02894817
248	0x3d270ee8	0.0407857
249	0xbd7ba41e	-0.06143581
250	0xbd50070f	-0.05078798
251	0x3d9c96cf	0.07645952
252	0xbd4f974b	-0.050681394
253	0xbe4bc23a	-0.1989831
254	0x3d895862	0.06706311
255	0xbdaa0c6e	-0.08303152

sequential/conv2d_3/Conv2D;StatefulPartitionedCall/sequential/conv2d_3/Conv2D f4 [32, 3, 3, 16]
0	0x3dbcda5b	0.092213355
1	0x3e079e1b	0.13243906
2	0x3dcaf768	0.0991047
3	0xbceaa8ca	-0.028644938
4	0xbe5b5f56	-0.21423087
5	0x3c65f529	0.0140355015
6	0xbdc4dfa5	-0.09612969
7	0x3d1b0965	0.037850756
8	0xbd8a6b35	-0.06758729
9	0x3e057cc7	0.1303588
10	0x3cb51f17	0.022109551
11	0xbd425012	-0.047439642
12	0xbd1760ba	-0.03695748
13	0x3dd35862	0.10319592
14	0x3c986b28	0.018605784
15	0xbd1b1ca3	-0.037869107
16	0x3d1e8dd5	0.03870948
17	0xbdaae761	-0.08344913
18	0xbce65f2d	-0.028121555
19	0x3c712db7	0.014720372
20	0xbe642ac2	-0.22281936
21	0xbdf2a4ae	-0.118478164
22	0xbb9d322b	-0.0047972403
23	0x3d75a20a	0.059968986
24	0xbd07e162	-0.033173926
25	0xbca98a3b	-0.020695796
26	0xbdcde8df	-0.10054182
27	0x3d5b59a4	0.053552285
28	0xbc602410	-0.013680473
29	0x3d7e58a7	0.062096264
30	0xbd9f7c47	-0.07787376
31	0x3d05188f	0.032494124
32	0x3dab9c49	0.083794184
33	0x3da4fac3	0.080556415
34	0xbe22df60	-0.15905523
35	0x3da36b8b	0.079794966
36	0x3cf5907f	0.029976128
37	0xbd895192	-0.067050114
38	0x3df8ae13	0.12142577
39	0x3deaeac2	0.11470558
40	0x3dd21d75	0.10259525
41	0xbe41863a	-0.1889886
42	0xbd1f65fb	-0.038915616
43	0x3d3ac3a2	0.045596726
44	0x3d9bca69	0.07606966
45	0xbc07edb2	-0.008296417
46	0xbd9164e8	-0.070993245
47	0x3d8797ee	0.06620775
48	0xbde9c7e0	-0.11415076
49	0xbe0bc6f8	-0.1365012
50	0x3e10e10a	0.14148346
51	0xbe9893bf	-0.2980022
52	0x3c02776a	0.007963041
53	0xbcf4f6f9	-0.029902922
54	0xbe45b239	-0.19306268
55	0xbe612998	-0.21988523
56	0xbe0bba16	-0.13645205
57	0xbb61e5c1	-0.003446922
58	0xbe20d548	-0.1570636
59	0xbe465334	-0.19367677
60	0xbd5ad054	-0.053421333
61	0x3dfc6f8a	0.12325962
62	0xbc9c8f86	-0.019111406
63	0xbe018b00	-0.1265068
64	0xbcf9847a	-0.030458678
65	0x3ca8b1f7	0.020592673
66	0xbd11e8a1	-0.035622243
67	0xbd277f75	-0.040893037
68	0xbc935ec7	-0.01798953
69	0xbdc0d29a	-0.09415169
70	0x3d7e5d47	0.062100675
71	0xbd6b8a8a	-0.057505168
72	0xbc8a2587	-0.016863598
73	0xbd46bf5b	-0.048522335
74	0xbea9ab36	-0.33138436
75	0xbdb3cff3	-0.087798975
76	0x3cd1e97d	0.025624031
77	0xbd035824	-0.03206648
78	0xbc565c9a	-0.013083601
79	0x3d825de5	0.06365565
80	0x3d8fa5af	0.070140235
81	0x3d8add9b	0.06780549
82	0xbe0ee0f8	-0.13953006
83	0x3de36c88	0.11104685
84	0xbe66bef9	-0.22533788
85	0xbdc1c688	-0.09461695
86	0x3e47b710	0.19503427
87	0x3da287dd	0.0793607
88	0x3d4b13b9	0.049579356
89	0x3d189d8d	0.037259627
90	0xbe12eb00	-0.14347458
91	0x3d1548ed	0.0364465
92	0x3ddcb286	0.10776238
93	0xbe3db4ae	-0.18525955
94	0x3c679af6	0.014136067
95	0xbd406f9c	-0.04698144
96	0xbe16501c	-0.14678997
97	0xbe17249c	-0.14760059
98	0x3e160991	0.14652087
99	0xbe23840e	-0.15968344
100	0x3d094063	0.03350867
101	0x3d451ae7	0.04812136
102	0x3d005350	0.031329453
103	0x3d10898d	0.03528743
104	0x3cec2ff3	0.028831458
105	0xbd9199b7	-0.07109397
106	0xbdf7a477	-0.12091916
107	0xbdbfb501	-0.09360696
108	0xbe331c69	-0.17491306
109	0xbce55d42	-0.02799857
110	0x3e36fabd	0.17869087
111	0xbe85b4e1	-0.26114562
112	0xbd4c5155	-0.04988225
113	0xbd25a1b5	-0.04043742
114	0x3da6d3ea	0.08145888
115	0x3e1da40a	0.15394607
116	0x3bf3c915	0.0074397423
117	0x3c663891	0.014051572
118	0x3c88af58	0.016685173
119	0xbde5ff35	-0.112303175
120	0x3ca8fbb8	0.020627841
121	0x3d983e89	0.07433803
122	0xbdae1a57	-0.08501118
123	0xbd589b11	-0.052882258
124	0x3cd55fc2	0.026046637
125	0xbe8aaa42	-0.2708302
126	0x3d2d3a08	0.04229167
127	0xbdf4551c	-0.11930296
128	0xbe047172	-0.12933901
129	0x3c7c3254	0.015392859
130	0xbe6f99a1	-0.23398449
131	0x3df861e8	0.12128049
132	0xbe1a6739	-0.15078439
133	0xbcd11710	-0.025523692
134	0xbd7663f9	-0.060153935
135	0x3d13848e	0.036015086
136	0x3ddf98ba	0.10917802
137	0x3e2f2519	0.17103995
138	0xbdea0db1	-0.11428393
139	0x3d9fdee4	0.07806185
140	0xbd5d545b	-0.054035526
141	0xbe966a89	-0.29378155
142	0xbcf2bf66	-0.029632282
143	0xbd597232	-0.05308742
144	0xbe8dd02a	-0.2769788
145	0xbde62ffc	-0.11239621
146	0x3e798c20	0.2436986
147	0xbc92eca1	-0.0179351
148	0xbd9de13a	-0.07708974
149	0x3da2b26a	0.07944186
150	0xbd824775	-0.063612856
151	0xbd2e7b31	-0.042597953
152	0xbcac847d	-0.02105927
153	0x3d63c15f	0.055604335
154	0xbdccfb40	-0.1000886
155	0xbe40c4f0	-0.18825126
156	0x3d3f67a0	0.046729684
157	0xbdb89304	-0.09012416
158	0x3e04e693	0.12978582
159	0xbdc19c0b	-0.09453591
160	0xbe49ffcb	-0.19726484
161	0x3dd28046	0.102783725
162	0x3de38421	0.11109186
163	0x3cd2c58d	0.025728965
164	0xbdef5af9	-0.116872735
165	0x3d3769c2	0.044778593
166	0x3dc9ce0e	0.09853755
167	0x3c9a2308	0.018815532
168	0x3d989332	0.0744995
169	0xbde7b414	-0.11313644
170	0xbe8b1adc	-0.2716893
171	0x3cd92ee7	0.026511623
172	0xbae2d3ee	-0.0017305592
173	0xbebb4f9d	-0.36584178
174	0x3e1bb282	0.15204814
175	0xbcb45378	-0.022012457
176	0xbe9651b5	-0.29359213
177	0x3952e200	0.00020111352
178	0x3d750827	0.059822228
179	0x3e2ede0e	0.17076895
180	0xbd5d878a	-0.05408434
181	0xbc0d02b4	-0.0086066015
182	0xbd5e8041	-0.05432153
183	0x3d7ecc07	0.062206294
184	0x3dd6954f	0.10477697
185	0xbce5f849	-0.028072493
186	0xbddabbca	-0.10680349
187	0x3e854e38	0.2603624
188	0x3e5b7058	0.21429574
189	0xbea67736	-0.32512826
190	0x3e5c799d	0.21530767
191	0xbc2df314	-0.010617036
192	0x3e16f77e	0.14742848
193	0xbc44f4ac	-0.012021225
194	0xbde14a96	-0.11000554
195	0xbcb7ae48	-0.022421971
196	0x3d944eb5	0.07241575
197	0x3c9800ec	0.018555127
198	0xbd5c6bae	-0.05381363
199	0x3dfa124d	0.12210522
200	0x3d9c38e4	0.076280385
201	0xbd88f248	-0.066868365
202	0x3cd5f065	0.026115606
203	0xbd81ccb7	-0.063378744
204	0xbd7960d8	-0.060883373
205	0xbd95657a	-0.07294746
206	0xbc18973c	-0.009313401
207	0xbd6b6bef	-0.05747598
208	0x3c7a0508	0.015259989
209	0x3de036e9	0.10947973
210	0xbdb93a11	-0.090442784
211	0xbdc2e860	-0.09516978
212	0xbc823b9e	-0.015897568
213	0x3c36e56d	0.011163098
214	0x3d29fdd5	0.04150184
215	0x3d19ceb4	0.037550643
216	0x3d389d71	0.045072023
217	0xbe19648b	-0.1497976
218	0x3d46dfbc	0.048553213
219	0xbd7ed65e	-0.062216155
220	0xbe887a3b	-0.26655754
221	0xbdae2b5f	-0.08504366
222	0xbcafc20a	-0.02145483
223	0xbd1c3bb7	-0.038142886
224	0x3de62c35	0.112389006
225	0x3cf68244	0.030091412
226	0xbd6f0214	-0.05835159
227	0x3d66ffcd	0.056396294
228	0x3d8786d5	0.06617514
229	0x3dea1fdd	0.11431859
230	0xbcb6d286	-0.022317182
231	0x3d4c3e71	0.049864236
232	0x3da4b2f9	0.08041949
233	0x3ccfc470	0.025362223
234	0xbd7b719c	-0.061387643
235	0x3da17c24	0.07885006
236	0xbd2e1b94	-0.04250677
237	0xbc6ec688	-0.014573701
238	0xbd7c3595	-0.061574537
239	0x3d3b5544	0.045735613
240	0x3d9ad8e2	0.07560898
241	0xbda362fb	-0.079778634
242	0xbdf27a38	-0.118397176
243	0xbdd8bdda	-0.10583086
244	0x3d5b3059	0.053512905
245	0x3d8cf233	0.06882133
246	0xbd91ec43	-0.071251415
247	0x3c80fb57	0.015744848
248	0xbdc21f69	-0.09478647
249	0x3d614297	0.054995146
250	0x3dc223a4	0.09479454
251	0xbce16294	-0.027512826
252	0x3c72aca6	0.01481167
253	0x3dee326c	0.11630711
254	0xbd768bda	-0.060191967
255	0x3d3f380f	0.04668432

sequential/conv2d_2/Conv2D;StatefulPartitionedCall/sequential/conv2d_2/Conv2D f4 [16, 3, 3, 16]
0	0x3d3cab4e	0.046061806
1	0x3d897b0a	0.06712921
2	0x3deb7cc0	0.114984035
3	0xbe145933	-0.14487152
4	0x3d69b4f6	0.057057343
5	0x3daf4904	0.085588485
6	0xbccd0df8	-0.025031075
7	0x3dd362d4	0.10321584
8	0x3e78a59f	0.2428193
9	0x3dcf4c89	0.1012202
10	0x3dbee594	0.09321132
11	0xbd16139b	-0.03663979
12	0xbcdd4258	-0.027009174
13	0xbdf570bf	-0.11984395
14	0x3d9e37d8	0.07725495
15	0xbcd975ea	-0.026545484
16	0xbc71bf50	-0.014755085
17	0x3db4d05a	0.088288024
18	0x3db6f2a4	0.08932999
19	0xbd6c6c94	-0.057720736
20	0xbda05b6d	-0.07829938
21	0x3e31196f	0.17294858
22	0x3e637e24	0.22216088
23	0x3c20e71c	0.009820726
24	0x3cad211a	0.021133948
25	0x3da622b1	0.081120856
26	0x3e209d73	0.15685062
27	0xbdd33d07	-0.103143744
28	0x3dcd0290	0.100102544
29	0xbd975b6c	-0.07390484
30	0x3d8b5503	0.06803324
31	0x3e309b14	0.17246658
32	0xbe31dfe8	-0.1737057
33	0xbda967ca	-0.08271749
34	0x3e13dd5f	0.14439915
35	0xbde79cf2	-0.11309232
36	0x3d931c51	0.07183135
37	0x3d47db47	0.048793104
38	0x3bc7de2d	0.0060994835
39	0x3d63c41d	0.05560695
40	0x3d661daf	0.056180652
41	0xbcbce2ab	-0.023057302
42	0x3e370a7e	0.17875096
43	0xbd0da3cd	-0.03458004
44	0x3e081778	0.13290203
45	0x3d0daae8	0.034586817
46	0x3de9457c	0.11390206
47	0x3caeedb0	0.021353573
48	0x3d273657	0.040823307
49	0x3e5b5050	0.21417356
50	0x3dd55b6b	0.10417827
51	0x3bc681dd	0.0060579614
52	0xbcc83e08	-0.024443641
53	0xbd767b3a	-0.06017611
54	0xbd638c6d	-0.055553842
55	0x3c1a40f7	0.009414903
56	0x3d890d41	0.06691981
57	0x3d152f07	0.036421802
58	0x3bb678fc	0.0055686217
59	0xbc03b5c1	-0.008038939
60	0xbd10b29e	-0.035326593
61	0x3c8fb829	0.01754387
62	0x3c30937f	0.010777353
63	0x3e0eb223	0.13935141
64	0xbddbb666	-0.10728149
65	0x3ddd2a2c	0.10799059
66	0xbd84393e	-0.064562306
67	0x3e0398d3	0.12851267
68	0xbccb96ee	-0.024852242
69	0x3b83b6a6	0.004019576
70	0x3db2c112	0.087282315
71	0xbdd93fb3	-0.10607853
72	0x3d51467f	0.05109262
73	0xbe02d80d	-0.1277773
74	0xbe848dcc	-0.25889432
75	0xbd3ed8a0	-0.04659331
76	0xbc1cebd0	-0.009577706
77	0x3db608b2	0.08888377
78	0x3d871246	0.06595282
79	0x3e06e281	0.13172342
80	0x3cc96a37	0.02458678
81	0x3935a3b3	0.00017322488
82	0x3c946151	0.01811281
83	0x3dc4e22d	0.09613452
84	0x3c7a251b	0.015267636
85	0x3e3510d1	0.17682196
86	0xbdb50a4f	-0.08839857
87	0x3c8d16b3	0.017222738
88	0xbd4cf010	-0.05003363
89	0xbe1cf8d8	-0.15329301
90	0xbc569683	-0.013097408
91	0x3db3b407	0.08774572
92	0xbd70ebd3	-0.05881865
93	0x3e25bdbf	0.16185664
94	0xbc61a696	-0.013772627
95	0x3e087648	0.1332637
96	0x3e60b58b	0.21944253
97	0xbe588db1	-0.21147801
98	0x3d9d42b4	0.07678738
99	0x3d6a8d74	0.057263806
100	0x3e364de3	0.17803149
101	0x3d9482d7	0.07251518
102	0x3d52b452	0.051441498
103	0xbe997973	-0.2997547
104	0xbc493745	-0.012281244
105	0x3cc722e9	0.024308639
106	0x3ba5b3c3	0.0050568297
107	0x3dbe252a	0.09284432
108	0xbdbc56fa	-0.09196277
109	0xbe6e2c1c	-0.23259014
110	0x3cebe4c6	0.028795611
111	0xbdcebf97	-0.100951366
112	0x3d2ab801	0.041679386
113	0xbeb08f4f	-0.34484336
114	0x3c5e30df	0.013561456
115	0xbc39e99a	-0.011347199
116	0x3e98bcd5	0.29831567
117	0x3e1c6635	0.15273364
118	0x3d6a7fcb	0.05725078
119	0xbe5c489c	-0.21512073
120	0xbda2812b	-0.07934793
121	0xbd45d830	-0.048301876
122	0x3dbd015e	0.092287764
123	0xbd6d656b	-0.057958048
124	0x3d36d909	0.044640575
125	0xbdb484d9	-0.08814401
126	0x3e287022	0.16449025
127	0xbcb10ad0	-0.021611601
128	0x3de69b4e	0.11260091
129	0xbe828249	-0.25490025
130	0xbd20533f	-0.03914189
131	0x3dcfbbde	0.10143255
132	0xbd0d9bb0	-0.034572303
133	0xbd3d05b9	-0.046148036
134	0xbbc6feb0	-0.0060728416
135	0xbe5f1b49	-0.21787752
136	0xbdd557d8	-0.104171455
137	0xbe30533e	-0.17219254
138	0xbe32aca7	-0.17448674
139	0xbd13ba01	-0.03606606
140	0xbd316ae0	-0.043314815
141	0x3d9f3614	0.077739865
142	0x3e9b921c	0.3038491
143	0x3c508cf0	0.012728915
144	0xbde7b51c	-0.11313841
145	0x3dd5a99d	0.10432742
146	0x3d6014a2	0.054707177
147	0x3dff8025	0.124756135
148	0x3cb11f6f	0.021621434
149	0xbdfe77de	-0.124252066
150	0xbdf43512	-0.11924185
151	0xbe294b63	-0.16532664
152	0x3d87301a	0.066009715
153	0xbe3bcfbb	-0.18340962
154	0xbd76164f	-0.06007987
155	0x3e428f4c	0.18999976
156	0xbc6e47d4	-0.014543492
157	0xbe52870b	-0.20559327
158	0xbc3ef37c	-0.011654731
159	0xbdaf1c79	-0.085503526
160	0xbe6aad7a	-0.22917739
161	0x3d77afd1	0.060470406
162	0x3d350beb	0.04420082
163	0xbd6c9d1f	-0.05776703
164	0x3d4a6a52	0.0494178
165	0xbd896920	-0.06709504
166	0x3da37052	0.07980408
167	0x3d1ba81e	0.038002126
168	0x3d4a1fd0	0.049346745
169	0x3c27fdb5	0.01025336
170	0xbd9e47b2	-0.077285185
171	0xbd9c4c44	-0.07631734
172	0x3da13cfe	0.078729615
173	0xbd5e5e6a	-0.05428926
174	0x3e289e25	0.16466577
175	0xbd84bd89	-0.064814635
176	0x3e38a78f	0.18032669
177	0xbd1056ae	-0.035238914
178	0x3d4f9236	0.050676547
179	0x3dfc5f61	0.123228796
180	0x3e24309f	0.16034172
181	0xbd0c164a	-0.034200944
182	0xbda4b127	-0.08041602
183	0x3cebb999	0.028775023
184	0xbda5f677	-0.0810365
185	0xbdde1783	-0.10844328
186	0x3dba59fc	0.090991944
187	0xbb80e924	-0.0039340425
188	0x3d80b823	0.06285121
189	0xbdba6850	-0.09101927
190	0xbb9ba103	-0.0047494187
191	0x3e2f3ca6	0.1711298
192	0xbc0c424c	-0.008560728
193	0xbdca836e	-0.098883495
194	0x3e05dbf7	0.13072191
195	0xbd31107e	-0.04322862
196	0xbcab9703	-0.020946031
197	0xbbf2c7e1	-0.0074090813
198	0xbe9f10c7	-0.31067488
199	0x3aa1f738	0.0012357002
200	0xbe2e66c8	-0.17031395
201	0xbe95af59	-0.29235342
202	0xbcffd4b1	-0.031229349
203	0x3d04c1b6	0.0324113
204	0x3e28c45c	0.16481155
205	0xbe24ab83	-0.16081052
206	0x3b070581	0.0020602646
207	0xbe0155ed	-0.12630434
208	0xbd8d687a	-0.06904693
209	0x3e7e5699	0.24837722
210	0x3d9853db	0.07437869
211	0x3d50283b	0.050819617
212	0xbdd2f6d7	-0.10300987
213	0xbd283977	-0.041070428
214	0xbe27cf1a	-0.16387597
215	0x3d83f514	0.06443229
216	0xbe074cb2	-0.1321285
217	0x3c3cc918	0.011522554
218	0xbcec44e5	-0.028841445
219	0xbe15996f	-0.14609312
220	0x3e11c33d	0.14234634
221	0xbe43625f	-0.19080494
222	0x3dc8db89	0.09807498
223	0xbdcf6df5	-0.101283945
224	0xbe0e0922	-0.13870671
225	0xbe25c8e3	-0.16189913
226	0xbe17adc6	-0.14812383
227	0x3df9e286	0.12201409
228	0xbd0b6340	-0.0340302
229	0xbd41c7ae	-0.04730957
230	0x3c9fc3de	0.019502576
231	0x3e2c9605	0.16854103
232	0xbd33f126	-0.04393115
233	0xbd4cba0b	-0.049982112
234	0xbdcdcd3c	-0.10048911
235	0xbc9f5b42	-0.019452695
236	0x3df96e23	0.1217921
237	0x3c24f22e	0.010067506
238	0x3cdf7373	0.02727673
239	0xbdb1afad	-0.086760856
240	0x3e179c53	0.14805727
241	0xbe80f843	-0.2518941
242	0x3e8be297	0.27321312
243	0xbd9692af	-0.073521964
244	0x3e82418b	0.2544063
245	0x3d878a16	0.06618135
246	0xbc1f3832	-0.009717988
247	0x3dee3679	0.116314836
248	0xbe15ad5c	-0.14616913
249	0xbea7d6a6	-0.3278095
250	0xbcf40dc3	-0.029791718
251	0x3e3b771c	0.18307155
252	0x3dab2c7a	0.083580926
253	0xbdef593f	-0.11686944
254	0x3bf3fdb9	0.0074460176
255	0x3c370003	0.011169436

sequential/conv2d_1/Conv2D;StatefulPartitionedCall/sequential/conv2d_1/Conv2D f4 [16, 3, 3, 8]
0	0x3dc11a71	0.094288714
1	0xbe6a2e00	-0.2286911
2	0x3db1d788	0.086836874
3	0xbe3e52e6	-0.1858631
4	0xbe0b4d20	-0.1360364
5	0x3df14a33	0.117817305
6	0x3d6d30d4	0.057907894
7	0xbcc2e17a	-0.023789156
8	0xbd852473	-0.06501093
9	0x3de30984	0.11085799
10	0xbe2b2b0e	-0.16715643
11	0xbd5f4f36	-0.0545189
12	0x3d1e273c	0.038611636
13	0x3dfe12ba	0.124059156
14	0xbdb9a307	-0.09064298
15	0xbdbd98ab	-0.09257635
16	0xbc990293	-0.018677985
17	0xbd9f44ba	-0.077767804
18	0xbe1e53d6	-0.15461668
19	0x3dbce8ab	0.092240654
20	0x3e06a3a8	0.13148367
21	0xbd9746ad	-0.07386527
22	0x3e17e280	0.14832497
23	0x3d678f50	0.056533158
24	0x3e65f18c	0.22455424
25	0xbcf703f1	-0.030153247
26	0x3e18e3e8	0.1493069
27	0xbe315040	-0.17315769
28	0x3bdfeb1f	0.0068334485
29	0x3d8e7b8b	0.06957158
30	0xbd6f3afe	-0.05840587
31	0xbe501894	-0.20321876
32	0x3e2b8f34	0.16753846
33	0x3dda36d2	0.106549874
34	0x3cfe2529	0.031023579
35	0x3dc7cc9c	0.09755823
36	0xbdb0e0a7	-0.08636599
37	0xbd33e9b1	-0.043924037
38	0x3e292bf1	0.16520669
39	0xbdcbf772	-0.09959306
40	0xbe54db6a	-0.20786825
41	0xbddb9f97	-0.10723799
42	0xbe5c7209	-0.21527876
43	0x3e321e4d	0.17394371
44	0x3c77a922	0.015116008
45	0xbcedc93a	-0.029026616
46	0xbd961515	-0.0732824
47	0xbe10329c	-0.14081806
48	0x3e25dd9f	0.16197823
49	0xbdbed888	-0.09318644
50	0x3e63013f	0.22168444
51	0x3d42118e	0.047380023
52	0x3d997245	0.07492498
53	0xbd82b5ef	-0.06382357
54	0xbe0611a0	-0.13092661
55	0xbe2db5a0	-0.16963816
56	0x3e128c13	0.14311247
57	0x3d9d569a	0.076825336
58	0xbe0dfdb2	-0.13866308
59	0xbd53a8ce	-0.051674657
60	0x3ce4ae71	0.027915211
61	0x3cc5a0f8	0.024124607
62	0xbdaff0eb	-0.08590873
63	0xbde99195	-0.11404721
64	0xbe7bc196	-0.24585566
65	0x3e1e8409	0.15480055
66	0xbb9650b2	-0.0045872563
67	0x3d7e0cb9	0.062023852
68	0xbdb18a0c	-0.086689085
69	0xbddf12b3	-0.108922385
70	0x3d313212	0.04326064
71	0x3dc7db90	0.09758675
72	0xbe0fe7bf	-0.14053248
73	0x3e615331	0.22004391
74	0x3df3359f	0.11875462
75	0x3d1a6dd9	0.037702415
76	0xbc918466	-0.017763328
77	0xbdbbf172	-0.091769114
78	0xbd6579db	-0.056024414
79	0xbe851cfb	-0.25998673
80	0x3e22e704	0.15908438
81	0xbdda0050	-0.10644591
82	0xbdd93438	-0.10605663
83	0xbda8c17e	-0.08240031
84	0x3c187850	0.0093060285
85	0x3dccb937	0.099962644
86	0x3d99bc83	0.07506659
87	0xbe0b6f25	-0.13616617
88	0x3e3190bb	0.17340367
89	0xbd88a202	-0.066715255
90	0xbd8b006a	-0.06787188
91	0xbd26d383	-0.040729057
92	0x3d6e619d	0.05819856
93	0xbc8ea5d8	-0.017413065
94	0xbdc6311b	-0.09677335
95	0xbd1b4e1c	-0.037916288
96	0xbcc5c3e6	-0.024141263
97	0x3e6bfdec	0.23046082
98	0xbe1bef9e	-0.15228125
99	0x3d76f199	0.060289
100	0xbd76d611	-0.060262743
101	0xbe3ab990	-0.18234849
102	0x3d491744	0.049094453
103	0xbe11425b	-0.14185469
104	0xbdc94fac	-0.09829649
105	0x3dda86c9	0.106702395
106	0x3e885f3e	0.26635164
107	0xbdae7f8e	-0.08520423
108	0x3c8c7f17	0.017150445
109	0xbc5e35d2	-0.013562636
110	0xbcb3b370	-0.021936148
111	0xbead17d1	-0.33807233
112	0xbd8e1fef	-0.069396846
113	0xbe2fca25	-0.17166956
114	0x3e322edc	0.17400688
115	0xbcd4a3c1	-0.02595699
116	0x3dc962d3	0.09833302
117	0x3b418c10	0.0029532947
118	0xbe219c32	-0.1578224
119	0xbde2cd99	-0.11074371
120	0x3e102c1d	0.14079328
121	0xbdffb1eb	-0.12485107
122	0xbd3e1e72	-0.046415754
123	0xbe4e6422	-0.20155385
124	0xbdd11454	-0.102089554
125	0x3d10dcff	0.03536701
126	0x3c788ac9	0.015169808
127	0xbdd88ceb	-0.10573753
128	0xbb578352	-0.003288467
129	0xbcd34691	-0.025790485
130	0x3d83410e	0.064088926
131	0xbdab2357	-0.0835635
132	0xbd17e1c4	-0.03708054
133	0xbc61a6df	-0.013772695
134	0x3d366472	0.044529386
135	0xbb944b3a	-0.0045255693
136	0xbdbd91c8	-0.09256321
137	0x3cd17924	0.02557046
138	0xbd9064ae	-0.07050453
139	0x3d85c942	0.065325275
140	0xbcee374b	-0.0290791
141	0x3e152b2c	0.1456725
142	0x3e2bf5fc	0.16793054
143	0xbda4e1b4	-0.08050862
144	0x3e20f934	0.15720063
145	0x3e10be8f	0.14135192
146	0x3cde4457	0.027132196
147	0x3e12da7e	0.1434116
148	0xbc8e7100	-0.017387867
149	0xbde3e0cd	-0.11126862
150	0xbe49a376	-0.19691262
151	0x3d9aeb0f	0.07564365
152	0xbdd1f7f3	-0.10252371
153	0xbdbfd8dc	-0.093675345
154	0x3d0f4703	0.03497983
155	0xbcdf2ed9	-0.027244018
156	0x3dff0251	0.12451614
157	0x3d34a0a6	0.04409852
158	0x3d78a9ab	0.060708683
159	0x3dbc12db	0.09183284
160	0xbd86efa9	-0.0658868
161	0x3db55567	0.0885418
162	0xbd8fe91e	-0.070268854
163	0x3ddb9408	0.10721594
164	0xbdeaa55b	-0.1145732
165	0xbcaddfd1	-0.021224888
166	0xbd57486d	-0.052559305
167	0x3d1bdd06	0.03805258
168	0xbe09a333	-0.13441162
169	0xbe07cfc1	-0.13262846
170	0xbdb2f7d1	-0.087386735
171	0x3ddc604c	0.10760555
172	0x3e23284f	0.15933345
173	0x3e1d5fc9	0.1536857
174	0xbe322a4c	-0.17398947
175	0x3d86ac44	0.06575826
176	0x3d3fddab	0.04684226
177	0x3e0e2c48	0.1388408
178	0x3e33cc6d	0.17558451
179	0x3ccba7fc	0.024860375
180	0x3cec3120	0.028832018
181	0xbdfe92c4	-0.12430337
182	0xbdd058e5	-0.10173205
183	0xbdbf7c1f	-0.09349846
184	0xbe15ef49	-0.14642061
185	0x3ce8c7a1	0.028415503
186	0x3d763f83	0.060119163
187	0xbc75be8b	-0.014999042
188	0xbc85f691	-0.016352924
189	0xbd92e367	-0.0717228
190	0x3d980b66	0.07424049
191	0xbb3a3b05	-0.0028416526
192	0xbd854ba3	-0.06508567
193	0x3e45a59a	0.19301453
194	0x3da34de8	0.07973844
195	0xbd35c00e	-0.04437261
196	0x3d82f113	0.063936375
197	0x3dc7f617	0.09763735
198	0xbdc9f14e	-0.09860478
199	0xbdaf60f7	-0.085634165
200	0xbdf014b8	-0.11722702
201	0xbdc7cb54	-0.09755579
202	0xbe1de3be	-0.15418908
203	0x3e07a9a6	0.1324831
204	0xbb85feb6	-0.004089202
205	0x3d982382	0.074286476
206	0xbdc7bffd	-0.09753416
207	0x3da63092	0.08114733
208	0x3e06e56d	0.13173456
209	0xbd3a398e	-0.045465045
210	0xbd2a3673	-0.041555833
211	0xbda06dee	-0.078334674
212	0xbbe3a49d	-0.0069471137
213	0xbe1010a9	-0.14068855
214	0x3dd3a669	0.103344746
215	0x3ce0e568	0.02745314
216	0x3dab13c6	0.08353381
217	0x3e06173b	0.13094799
218	0x3d1c9578	0.038228482
219	0x3d9dc98b	0.07704457
220	0x3d48c51d	0.049016107
221	0xbcffaa35	-0.03120909
222	0xbc231eb2	-0.009956049
223	0x3e13d2c9	0.14435877
224	0xbdf0c90b	-0.11757096
225	0x3eb65825	0.35614124
226	0xbe617e3e	-0.22020814
227	0xbd6200bf	-0.055176493
228	0xbdc5edfb	-0.09664532
229	0xbdca0d43	-0.09865811
230	0xbc8fc4ad	-0.017549837
231	0x3d4b3961	0.049615268
232	0xbb2c95a8	-0.002633432
233	0x3e7df038	0.24798667
234	0x3d668cdb	0.056286674
235	0xbbaa8cea	-0.0052047865
236	0x3dde6a6f	0.10860144
237	0xbdb886a1	-0.090100534
238	0x3e0e9250	0.13923001
239	0x3d1b5d36	0.03793069
240	0xbd5fedfb	-0.054670315
241	0x3e53bcb4	0.20677453
242	0xbe336250	-0.17517972
243	0x3e10180e	0.14071676
244	0x3dcf5b63	0.101248525
245	0xbd63aa74	-0.05558248
246	0xbddf4949	-0.1090265
247	0x3dff1a73	0.12456217
248	0xbe174508	-0.14772427
249	0x3e8379ab	0.25678763
250	0xbe8f787e	-0.28021616
251	0xbdc5d8a0	-0.096604586
252	0xbdc55f9f	-0.09637379
253	0x3d616066	0.055023573
254	0x3ded527d	0.11587999
255	0xbe8e67bc	-0.27813518

sequential/conv2d/Conv2D;StatefulPartitionedCall/sequential/conv2d/Conv2D f4 [8, 5, 5, 3]
0	0x3e105436	0.14094624
1	0xbd24724e	-0.040148072
2	0xbdc18ab3	-0.09450283
3	0xbdd00ae5	-0.10158328
4	0x3d99580c	0.07487497
5	0x3c11eca2	0.008906515
6	0xbe22ffcc	-0.15917891
7	0x3c8f0262	0.01745719
8	0x3cf21712	0.029552016
9	0xbdfab1b5	-0.12240926
10	0xbc39b5cb	-0.011334847
11	0x3d185c45	0.03719737
12	0x3c89ce97	0.016822143
13	0xbd5f2f0c	-0.054488227
14	0xbcbae931	-0.022816272
15	0xbdbe80a8	-0.09301883
16	0x3c366a00	0.011133671
17	0x3e131bda	0.14366093
18	0xbdc0de45	-0.094173945
19	0x3e2ada0a	0.16684738
20	0x3e2fe9cf	0.17179035
21	0xbcc12819	-0.02357869
22	0x3e19c50c	0.15016574
23	0x3d1e405a	0.03863559
24	0xbcdf641f	-0.027269421
25	0x3e12d439	0.14338769
26	0x3e0c6309	0.13709654
27	0x3da0ff5c	0.07861206
28	0xbd231984	-0.039819255
29	0x3d0cff48	0.034423143
30	0xbdd49901	-0.10380746
31	0x3d775980	0.06038809
32	0x3e0dbae7	0.13840829
33	0xbd907b31	-0.07054747
34	0x3e7f3cca	0.24925533
35	0x3dcabb19	0.09898967
36	0x38e511de	0.00010922899
37	0x3ea355fa	0.31901532
38	0x3df62936	0.12019579
39	0xbdec7917	-0.115465336
40	0x3e181d49	0.14854921
41	0x3da32db1	0.07967699
42	0xbe10f962	-0.14157632
43	0x3e470a62	0.19437554
44	0x3db19765	0.08671454
45	0xbe84b10b	-0.25916323
46	0x3dc16594	0.094432026
47	0x3dbe32ca	0.09287031
48	0xbe66d345	-0.2254153
49	0x3e96b104	0.29431927
50	0x3ddafde6	0.106929585
51	0xbe237159	-0.15961207
52	0x3ecc038b	0.39846453
53	0x3e06c350	0.13160443
54	0xbe1d215b	-0.15344755
55	0x3e99bc36	0.30026406
56	0x3d215bdd	0.03939425
57	0xbd1ae9ef	-0.037820753
58	0xbb1de50b	-0.002409282
59	0x3d03fdad	0.032224346
60	0xbd88218b	-0.06647023
61	0xbdb37e02	-0.087642685
62	0x3d9a7fc5	0.07543901
63	0xbe04eb59	-0.12980403
64	0xbd1c9743	-0.038230192
65	0x3ddfe5bf	0.109324925
66	0xbe72eee6	-0.23723945
67	0x3e937eba	0.28807622
68	0x3af52aab	0.0018704733
69	0xbdefebd8	-0.117149055
70	0x3e8b79ca	0.27241355
71	0xbd587869	-0.052849207
72	0xbe6a424b	-0.22876851
73	0x3dd82511	0.10553945
74	0x3d6580b7	0.056030955
75	0x3d71be3d	0.059019316
76	0xbdc9eb16	-0.09859292
77	0xbc0379d2	-0.00802465
78	0x3d3b3a36	0.04570981
79	0xbc65ecbf	-0.014033495
80	0x3d4f979f	0.050681707
81	0x3be80704	0.0070809145
82	0x3df5e6e9	0.12006933
83	0x3de62c44	0.11238912
84	0xbe4d4450	-0.2004559
85	0x3cd72146	0.026260983
86	0x3dd17c71	0.102288134
87	0xbd9b40f9	-0.07580752
88	0x3dd4faad	0.10399375
89	0xbdb1a3a7	-0.08673792
90	0x3c9c3b24	0.01907117
91	0x3c227580	0.0099157095
92	0xbd8d7fba	-0.069091275
93	0xbdb70715	-0.08936898
94	0x3c234b3d	0.009966669
95	0xbc3b8c47	-0.011447019
96	0xbe5c890b	-0.21536653
97	0x3d6136c4	0.05498387
98	0xbcd2c985	-0.025730858
99	0xbe6e09dd	-0.2324595
100	0x3d83df95	0.06439129
101	0x3c9369ab	0.017994722
102	0xbe687668	-0.22701418
103	0xba458ad1	-0.0007535639
104	0x3e7c3775	0.2463053
105	0xbdb38118	-0.08764857
106	0x3dc1b16a	0.09457667
107	0x3de78af1	0.11305798
108	0xbe11b78f	-0.14230178
109	0xbc8383e5	-0.016054103
110	0x3d81312a	0.063082054
111	0xbe96f2fd	-0.2948226
112	0xbd391521	-0.045186166
113	0x3e581612	0.21102169
114	0xbebb9ddd	-0.36643878
115	0x3e0add7a	0.13561049
116	0x3e0918b6	0.13388333
117	0xbe9802b6	-0.29689568
118	0x3d26d90b	0.040734332
119	0x3df5d08f	0.1200267
120	0x3db7c605	0.08973316
121	0x3da9c52e	0.08289562
122	0xbd858f5f	-0.065214865
123	0xbdca456d	-0.09876523
124	0xbd9c5a8b	-0.07634457
125	0x3dd435f3	0.103618525
126	0xbbf0a03f	-0.0073433216
127	0x3e146fb4	0.14495736
128	0x3d05ff59	0.03271422
129	0xbea902a2	-0.3300982
130	0xbd8a89e5	-0.067645825
131	0x3e42f40a	0.19038406
132	0xbea690b8	-0.32532287
133	0xbe180ff4	-0.14849836
134	0x3e517594	0.20455009
135	0x3c5421d3	0.012947517
136	0x3ba45b88	0.005015794
137	0xbd5ede16	-0.054411016
138	0x3d80a358	0.06281155
139	0x3c238dd0	0.009982541
140	0x3d83ff46	0.06445174
141	0x3d0e5c0a	0.034755744
142	0x3d1ccf20	0.038283467
143	0xbd3d78f3	-0.046257924
144	0xbe436bef	-0.19084142
145	0x3e013ee1	0.12621643
146	0x3dc40273	0.0957078
147	0xbe766b75	-0.24064429
148	0x3e0602f8	0.1308707
149	0x3dc2c8f6	0.095109865
150	0x3da96c26	0.08272581
151	0xbd633943	-0.05547453
152	0xbcad53b1	-0.021158071
153	0xbe2ab35d	-0.16669984
154	0xbd8dc048	-0.0692144
155	0x3d2921bc	0.041291937
156	0xbe0f6e84	-0.14007002
157	0x3e2f006a	0.17090002
158	0x3d7c1fee	0.061553888
159	0xbdc6155e	-0.09672044
160	0x3df74c51	0.12075103
161	0x3e349c58	0.17637765
162	0xbddd9f75	-0.1082143
163	0x3e0833f6	0.13301072
164	0x3e58cba6	0.21171436
165	0x3db38885	0.087662734
166	0xbe27f961	-0.16403724
167	0xbc1f3afa	-0.009718651
168	0xbdec22b1	-0.11530054
169	0x3ce4c324	0.027925082
170	0x3d7444a9	0.059635792
171	0x3bdf4a2a	0.006814261
172	0x3e2f434f	0.1711552
173	0x3e3420bb	0.1759061
174	0x3d30712a	0.04307667
175	0x3e9803c6	0.2969038
176	0x3e5057cd	0.20345993
177	0xbdf32082	-0.11871435
178	0x3e847e68	0.2587769
179	0xbcb1f1ac	-0.021721683
180	0x3d4ce405	0.050022144
181	0xbdef996c	-0.11699185
182	0x3d0991c3	0.033586275
183	0xbd9a90c3	-0.07547142
184	0x3bc56353	0.0060238033
185	0xbdbd1f1a	-0.09234448
186	0xbbdfccd7	-0.0068298387
187	0x3e35d9bc	0.1775884
188	0x3e0af55e	0.13570163
189	0x3ddda7f9	0.10823054
190	0x3eaede96	0.34154195
191	0x3debb234	0.11508599
192	0xbc2fa854	-0.010721285
193	0x3e1fd81b	0.15609781
194	0xbe338bb5	-0.17533763
195	0xbd99fc50	-0.07518828
196	0xbccd61a2	-0.025070969
197	0x3dd0e7ad	0.10200439
198	0x3ddab8d6	0.10679786
199	0x3d16f5f4	0.036855653
200	0xbe0647a4	-0.13113266
201	0x3d9bb061	0.07602001
202	0xbd2215bd	-0.039571512
203	0x3e0aca92	0.13553837
204	0x3e1fa047	0.15588485
205	0x3e435500	0.19075394
206	0xbb388966	-0.0028158068
207	0xbe0aea8c	-0.13566035
208	0x3d620564	0.055180922
209	0xbda0993a	-0.07841726
210	0x3d7de014	0.061981276
211	0xbd1eb158	-0.038743347
212	0xbc8df1b2	-0.017327163
213	0x3d919fdd	0.071105696
214	0xbddb1d3d	-0.10698936
215	0x3e20c568	0.15700305
216	0x3de98392	0.11402048
217	0xbdc650ab	-0.09683355
218	0x3d6e2f0a	0.05815033
219	0x3ddc0469	0.10743029
220	0xbd94ae99	-0.07259864
221	0xbd5c54f7	-0.053791966
222	0x3d392d94	0.045209482
223	0xbc30f9fa	-0.010801787
224	0xbd90c3bc	-0.07068583
225	0xbd2d94dc	-0.04237829
226	0xbe111670	-0.14168715
227	0x3dabd5df	0.08390402
228	0xbd889507	-0.0666905
229	0xbe05e185	-0.1307431
230	0x3d88afde	0.06674169
231	0x3d468d6a	0.048474707
232	0x3df6af21	0.12045122
233	0x3df342d4	0.11877981
234	0xbc95da25	-0.018292496
235	0x3dd89eba	0.1057715
236	0x3c9a2821	0.018817963
237	0x3ced8d22	0.028997961
238	0x3d724ee9	0.059157286
239	0xbd94ec8d	-0.07271681
240	0x3dab10af	0.083527915
241	0xbe1923e2	-0.14955094
242	0xbdffdfc4	-0.12493852
243	0xbdb7718d	-0.08957205
244	0x3dea26ad	0.11433158
245	0xbe07e6f9	-0.13271703
246	0xbe19405c	-0.14965957
247	0xbe11d951	-0.14243056
248	0xbd2a592e	-0.041588955
249	0x3de24197	0.110476665
250	0xbde2697d	-0.110552765
251	0x39ce8ad2	0.0003939481
252	0x3d3f3f32	0.046691127
253	0x3dad4cf7	0.084619455
254	0xbe07c118	-0.13257253
255	0x3e0a7038	0.1351937

unknown_30 f4 [128]
0	0x3e2af8d3	0.16696481
1	0x3de22a59	0.110432334
2	0x3dd4c7b0	0.1038965
3	0x3d0636b3	0.03276701
4	0x3e22869c	0.15871662
5	0x3d724c94	0.05915506
6	0x3cb1cd5b	0.021704366
7	0x3e2e1a24	0.1700216
8	0x3d882d04	0.06649211
9	0x3e23b72a	0.1598784
10	0x3df874d8	0.12131661
11	0xbda5b512	-0.08091177
12	0x3d2f06db	0.042731147
13	0x3d85440f	0.06507122
14	0xbdb2ef4a	-0.08737047
15	0x3d0b1b07	0.033961322
16	0x3d576811	0.05258948
17	0x3da084e4	0.07837847
18	0x3d4b9998	0.049707025
19	0x3df188c2	0.117936626
20	0x3d608da6	0.054822586
21	0x3de1b8ab	0.11021551
22	0x3de1645f	0.110054724
23	0x3d18554a	0.037190713
24	0xbd1aa472	-0.037754484
25	0x3d85684b	0.06514033
26	0x3e0dbfdd	0.13842721
27	0x3c4d08ad	0.0125142755
28	0x3e1d0ba3	0.1533647
29	0x3e257577	0.1615809
30	0x3d9b3dd8	0.07580155
31	0x3de84560	0.11341357
32	0x3ddbf1b3	0.1073946
33	0x3d8ad2fd	0.06778524
34	0x3d22d72e	0.039755993
35	0xbce2d4c9	-0.027689354
36	0x3e080b72	0.13285616
37	0xbcd2e385	-0.025743255
38	0x3e104b30	0.14091182
39	0x3e061331	0.13093258
40	0x3dc6af08	0.09701353
41	0x3d3355cc	0.043782994
42	0x3e069f94	0.13146812
43	0x3d39e3ca	0.045383252
44	0x3cf63626	0.030055117
45	0x3dcb5f5c	0.09930298
46	0x3dc9852f	0.09839856
47	0x3e0d4ac2	0.13798049
48	0xbd966a70	-0.0734452
49	0x3dca2298	0.098698795
50	0x3dbd4e88	0.09243494
51	0xbc63d5f1	-0.013905988
52	0x3db6b52c	0.089212745
53	0x3d2dac86	0.04240086
54	0x3de3f165	0.11130027
55	0x3e04eb8c	0.12980479
56	0x3d2e3595	0.04253157
57	0x3e236eea	0.15960279
58	0x3dd006a0	0.101575136
59	0x3e11696b	0.1420037
60	0xbd86cb71	-0.06581772
61	0x3dbeab06	0.09309964
62	0x3be773e9	0.007063378
63	0x3e03e616	0.1288074
64	0x3d8ebf0a	0.069700316
65	0x3de6ba3f	0.112659924
66	0x3e837c3a	0.25680715
67	0x3da12ad6	0.078694984
68	0x3ca7f2bf	0.020501493
69	0x3dc28066	0.09497146
70	0x3e1f77c6	0.15573034
71	0x3dbf84da	0.09351511
72	0x3b1e0171	0.0024109746
73	0x3deaddcf	0.11468088
74	0xbd3386fb	-0.0438299
75	0x3d68144c	0.05665998
76	0x3d869639	0.065716214
77	0x3e21375a	0.15743771
78	0x3db61408	0.088905394
79	0xbc2276c8	-0.009916015
80	0x3e78b9f4	0.24289685
81	0xbc4881b6	-0.012237957
82	0x3d5a5a0a	0.053308524
83	0x3d0ccb1b	0.034373384
84	0xbdd91255	-0.105992
85	0x3d8d3545	0.06894926
86	0xbdb4a9ec	-0.088214725
87	0x3e302373	0.17201023
88	0x3e332b86	0.17497072
89	0xbd9ea484	-0.077462226
90	0x3e142e12	0.144707
91	0x3dded854	0.10881105
92	0xbd159386	-0.036517642
93	0x3e121ea5	0.14269502
94	0x3e578377	0.21046244
95	0xbdcbdea3	-0.09954574
96	0x3dbdb7f0	0.09263599
97	0x3db69fa6	0.08917169
98	0x3e87c0f6	0.26514405
99	0x3d424f4c	0.047438905
100	0x3d82d835	0.063888945
101	0x3db46734	0.08808747
102	0x3dcd0946	0.100115344
103	0xbddea91f	-0.10872101
104	0x3bac5c0c	0.0052599963
105	0xba14dd2a	-0.0005678708
106	0x3dbb824a	0.0915571
107	0xbdb92f41	-0.09042216
108	0x3df7ed1a	0.121057704
109	0xbd2001a6	-0.039064072
110	0x3e00c635	0.1257561
111	0x3dfb7698	0.12278479
112	0x3d834807	0.064102225
113	0xbc647d57	-0.013945899
114	0x3e5ef084	0.21771437
115	0x3bbe4827	0.005806941
116	0x3e490250	0.19629788
117	0x3e1bf0f4	0.15228635
118	0x3db9fbc8	0.090812266
119	0x3cff2ed6	0.031150263
120	0x3da49033	0.08035316
121	0x3d66818d	0.056275893
122	0xbd7882f8	-0.060671777
123	0x3d7c578d	0.061606932
124	0x3e17e452	0.14833191
125	0x3cceeb6c	0.025258742
126	0x3dcefde5	0.1010702
127	0x3e4570ca	0.19281307

sequential/batch_normalization/FusedBatchNormV3;StatefulPartitionedCall/sequential/batch_normalization/FusedBatchNormV3 f4 [8]
0	0x421063eb	36.097576
1	0x421583d4	37.37874
2	0x42016026	32.343895
3	0x41fb75af	31.432463
4	0x41fae2ba	31.360706
5	0x41fe8013	31.812536
6	0x41fb6711	31.425325
7	0x420f757a	35.864723

sequential/batch_normalization/FusedBatchNormV3;StatefulPartitionedCall/sequential/batch_normalization/FusedBatchNormV31 f4 [8]
0	0xbf10afc2	-0.56518185
1	0xbfb41a7f	-1.4070586
2	0xc0958da2	-4.673539
3	0xbc2471e8	-0.010036923
4	0xbb9e0afa	-0.004823086
5	0xb9e5acf5	-0.00043807147
6	0xbaf08b01	-0.0018351973
7	0xbfac3adf	-1.3455466

sequential/batch_normalization_1/FusedBatchNormV3;StatefulPartitionedCall/sequential/batch_normalization_1/FusedBatchNormV3 f4 [16]
0	0x4195c4bb	18.72106
1	0x41c420b0	24.51596
2	0x41e8ff4c	29.124657
3	0x41d9bb38	27.216415
4	0x41a32280	20.391846
5	0x41c708c5	24.879282
6	0x41903fc1	18.03113
7	0x41ba9eab	23.327475
8	0x41a35fec	20.421837
9	0x41de6a7c	27.801994
10	0x41a70646	20.878063
11	0x41a894af	21.0726
12	0x41db6ade	27.427181
13	0x41dabad3	27.341223
14	0x41c0a7e2	24.081974
15	0x41a71a06	20.887707

sequential/batch_normalization_1/FusedBatchNormV3;StatefulPartitionedCall/sequential/batch_normalization_1/FusedBatchNormV31 f4 [16]
0	0xbf7bf0be	-0.9841422
1	0xbfdd82e7	-1.7305573
2	0xbe132865	-0.14370878
3	0xbdbcab53	-0.09212365
4	0xbff7ebf5	-1.9368883
5	0xbeadd049	-0.3394797
6	0xbecbf717	-0.39836952
7	0xbe9096b9	-0.28239992
8	0xbf610a17	-0.8790602
9	0x3e6d4ad9	0.23173083
10	0xbe695c51	-0.22789122
11	0xbf692644	-0.91074014
12	0xbe42aec2	-0.19011977
13	0xbd772168	-0.060334593
14	0xbe9a121d	-0.30091944
15	0xbfc85bff	-1.5653075

sequential/batch_normalization_2/FusedBatchNormV3;StatefulPartitionedCall/sequential/batch_normalization_2/FusedBatchNormV3 f4 [16]
0	0x3fbb346b	1.4625372
1	0x400a2c08	2.1589375
2	0x40099cad	2.1501877
3	0x3fd542fe	1.6661069
4	0x3fbabafe	1.4588315
5	0x3fc23f24	1.5175519
6	0x400cffac	2.203105
7	0x40088bbd	2.133529
8	0x3fbbd77b	1.4675134
9	0x3f9b9f6c	1.2158027
10	0x3ffb176e	1.9616525
11	0x3ffeaa4d	1.9895722
12	0x3fa54994	1.2913079
13	0x40024090	2.0351906
14	0x3fd9928c	1.6997848
15	0x403de719	2.96723

sequential/batch_normalization_2/FusedBatchNormV3;StatefulPartitionedCall/sequential/batch_normalization_2/FusedBatchNormV31 f4 [16]
0	0xbed90080	-0.42383194
1	0xbf014e28	-0.5050988
2	0xbeabbf57	-0.33544418
3	0xbf46d537	-0.7766909
4	0xbeb18f60	-0.346797
5	0xbf318ef5	-0.6935876
6	0xbeec64bb	-0.461706
7	0xbf188bc0	-0.5958824
8	0xbead8622	-0.33891398
9	0xbf5c723b	-0.861118
10	0xbdbe54ec	-0.09293541
11	0xbf14cace	-0.58121955
12	0xbead9f05	-0.33910385
13	0xbef8340e	-0.48477215
14	0xbef13b14	-0.47115386
15	0xbed1c3c9	-0.40969685

sequential/batch_normalization_3/FusedBatchNormV3;StatefulPartitionedCall/sequential/batch_normalization_3/FusedBatchNormV3 f4 [32]
0	0x40061b51	2.0954173
1	0x3f8a5231	1.0806333
2	0x3f9b7e49	1.2147914
3	0x3f5440b8	0.8291125
4	0x3fc5ee4d	1.5463349
5	0x3f9338cf	1.1501712
6	0x3f9464cc	1.1593261
7	0x3f1e46c6	0.6182674
8	0x3f83eeb3	1.030722
9	0x3f2e69fa	0.6813046
10	0x3f1ae3c4	0.6050379
11	0x3f8435b4	1.0328889
12	0x3f77616b	0.96633023
13	0x3f32250b	0.69587773
14	0x3f84ffbf	1.0390548
15	0x3f95b731	1.169653
16	0x4004da25	2.0758145
17	0x3f8dc0da	1.1074479
18	0x3fc19767	1.5124329
19	0x3fc078df	1.5036887
20	0x3fc19934	1.5124879
21	0x3f87a9bd	1.0598675
22	0x3fc300f7	1.523467
23	0x3f1fa42a	0.6235987
24	0x3f9c646f	1.221815
25	0x3fce29b3	1.6106476
26	0x3f4fb451	0.81134516
27	0x3f7796ba	0.96714365
28	0x3fa4e645	1.2882773
29	0x3f83b15f	1.0288504
30	0x3f787acb	0.9706237
31	0x3f406032	0.7514678

sequential/batch_normalization_3/FusedBatchNormV3;StatefulPartitionedCall/sequential/batch_normalization_3/FusedBatchNormV31 f4 [32]
0	0xbf03d75e	-0.515005
1	0xbf4e77ec	-0.80651736
2	0xbebbafd0	-0.36657572
3	0xbe3c2a1c	-0.18375438
4	0xbd161038	-0.03663656
5	0xbdce1c00	-0.10063934
6	0xbd17d320	-0.03706658
7	0xbe9495b7	-0.29020473
8	0xbf058ff3	-0.52172774
9	0xbf0c846b	-0.54889554
10	0xbee4f484	-0.447178
11	0xbf06cd0f	-0.52656645
12	0xbedeb2f3	-0.43495902
13	0xbf192387	-0.59819835
14	0xbf01551d	-0.505205
15	0xbf48b5d8	-0.7840247
16	0xbea23201	-0.31678775
17	0x3d315170	0.043290555
18	0xbe682d66	-0.22673568
19	0xbdf521de	-0.1196935
20	0xbeb7e28a	-0.35915023
21	0xbeb46944	-0.3523656
22	0xbc2c65c0	-0.010522306
23	0xbe3ea884	-0.18618971
24	0xbe8edb83	-0.2790185
25	0xbec04310	-0.37551165
26	0xbeb00d25	-0.34385028
27	0xbdb6b62c	-0.08921465
28	0xbb5b9b00	-0.0033509135
29	0xbea03972	-0.31293827
30	0xbf2676c8	-0.65024996
31	0xbea277b3	-0.31731948

sequential/batch_normalization_4/FusedBatchNormV3;StatefulPartitionedCall/sequential/batch_normalization_4/FusedBatchNormV3 f4 [32]
0	0x3fab93dc	1.3404498
1	0x3fd9e069	1.702161
2	0x3f823f23	1.0175518
3	0x3ff5bf32	1.9198973
4	0x3fac1943	1.3445209
5	0x3f97af02	1.1850283
6	0x3fc4d6b3	1.5378021
7	0x3fc6cd07	1.5531319
8	0x3f949488	1.1607828
9	0x3fc25fc7	1.5185479
10	0x3fd9eaeb	1.7024816
11	0x3f8da5ee	1.1066263
12	0x3fab77b5	1.3395907
13	0x3f970b32	1.1800292
14	0x3ff4f72f	1.9137934
15	0x3fa15c43	1.2606281
16	0x4006ec89	2.108187
17	0x3faf25a5	1.3683363
18	0x3fbed9d2	1.4910223
19	0x40030686	2.0472732
20	0x3fd0d097	1.6313657
21	0x3f9f2d6f	1.243574
22	0x3fb2e1fa	1.3975213
23	0x3fbe7ee0	1.4882469
24	0x3f9cbdf4	1.2245469
25	0x3fb645ae	1.4240015
26	0x40059148	2.0869923
27	0x4000416f	2.0039937
28	0x3f85ddc1	1.0458299
29	0x40001c51	2.0017283
30	0x3fcd34fd	1.6031796
31	0x3f9bde45	1.2177206

sequential/batch_normalization_4/FusedBatchNormV3;StatefulPartitionedCall/sequential/batch_normalization_4/FusedBatchNormV31 f4 [32]
0	0xbe9f0309	-0.31057003
1	0xbeba652a	-0.36405307
2	0xbe9b34fb	-0.30313858
3	0xbeac0234	-0.3359543
4	0xbec371af	-0.3817267
5	0xbec93de8	-0.39305043
6	0xbeff0d74	-0.4981495
7	0xbea312a3	-0.31850156
8	0xbeabd6e3	-0.33562383
9	0xbeba8ec9	-0.3643706
10	0xbebc0b38	-0.3672731
11	0xbe7e00a2	-0.24804929
12	0xbf04c7c4	-0.5186732
13	0xbeb4d2c5	-0.35317054
14	0xbe8b2d53	-0.27183017
15	0xbe5a19e2	-0.21298936
16	0xbe8646ec	-0.26225984
17	0xbf0b4135	-0.54396373
18	0xbefb8d98	-0.49131465
19	0xbeacf3e6	-0.3377983
20	0xbe831f92	-0.25610024
21	0xbf0ba4ae	-0.54548156
22	0xbf08eb90	-0.5348444
23	0xbec41b0a	-0.3830188
24	0xbede57b3	-0.43426284
25	0xbe4a9b94	-0.19785911
26	0xbebb92c1	-0.36635402
27	0xbe5f997e	-0.21835896
28	0xbed1b54f	-0.4095864
29	0xbe56f1e4	-0.20990711
30	0xbe9bfa7d	-0.30464545
31	0xbeaabd71	-0.33347657
