app/src/main/assets/sign_recogn_meta2.tflite (tflite, 436608 bytes, 29 tensors)

sequential/dense_2/MatMul;sequential/dense_2/BiasAdd f4 [43]
0	0x408d9bf7	4.4252887
1	0x409e4771	4.946221
2	0x409cb833	4.8974853
3	0x409d44b6	4.9146376
4	0x4085cb7b	4.181089
5	0x40af2224	5.4729176
6	0x3ff10b0d	1.8831497
7	0x4091cf6a	4.556569
8	0x40a017d5	5.002909
9	0x3fe721b6	1.8057163
10	0x404ee270	3.2325706
11	0x406405e0	3.5628586
12	0x4099f4c0	4.8111267
13	0x40b2bdee	5.585685
14	0x40743a1c	3.8160467
15	0x3fb65982	1.4246066
16	0x3f9022bd	1.1260601
17	0xbf193fb8	-0.5986285
18	0x40592659	3.3929656
19	0x4016e050	2.357441
20	0x408db3c7	4.4281955
21	0x40948731	4.641503
22	0x4028efa7	2.6396272
23	0x4080b82b	4.0224814
24	0x400cc6ac	2.199626
25	0x40669fd3	3.603505
26	0x3fedaa30	1.8567562
27	0x3ffe5361	1.9869195
28	0x40987b06	4.7650175
29	0x40b6e04a	5.714879
30	0x405046b7	3.254316
31	0x408ba0e6	4.363391
32	0x3f8f4104	1.1191716
33	0x3f7f96c5	0.9983943
34	0x3fb84714	1.4396691
35	0x40491bcd	3.1423218
36	0x403c6812	2.943852
37	0xbf32eaf6	-0.6988977
38	0x409d2cbb	4.9117103
39	0x3f338c94	0.7013638
40	0x409b38f4	4.8507023
41	0x3f869cc9	1.0516597
42	0x3ffb4767	1.9631165

sequential/conv2d_4/BiasAdd;sequential/conv2d_3/Conv2D;sequential/conv2d_4/Conv2D;conv2d_4/bias f4 [32]
0	0xbecc1d44	-0.39866078
1	0xbe54ca63	-0.2078033
2	0xbe56182a	-0.20907655
3	0xbe580cb3	-0.21098594
4	0xbdf646f3	-0.12025251
5	0xbe225f81	-0.15856744
6	0xbe3a37ec	-0.18185395
7	0xbe5e29bf	-0.21695612
8	0xbe0f9223	-0.1402059
9	0xbe0729d3	-0.13199548
10	0xbe8a3188	-0.26990914
11	0xbc840686	-0.016116392
12	0xbe660261	-0.22461845
13	0xbde0722b	-0.10959276
14	0xbe9b8350	-0.3037362
15	0xbe043187	-0.12909518
16	0xbdb065a2	-0.08613135
17	0xbe2b3757	-0.16720329
18	0xbe8a5c89	-0.27023724
19	0xbdb3c858	-0.08778447
20	0xbe100f09	-0.14068235
21	0xbe00928d	-0.12555905
22	0xbe0bc1a9	-0.13648094
23	0xbe77e458	-0.242082
24	0xbe9d5454	-0.307284
25	0xbe51d117	-0.20489918
26	0xbdeea5db	-0.11652728
27	0xbe97517e	-0.2955436
28	0xbe75fe10	-0.24022698
29	0xbe467700	-0.19381332
30	0xbea997f2	-0.33123738
31	0xbe50e332	-0.20399168

sequential/conv2d_3/BiasAdd;sequential/conv2d_3/Conv2D;conv2d_3/bias f4 [32]
0	0xbd3ba79d	-0.045814145
1	0xbead5413	-0.33853206
2	0xbe197b6f	-0.14988492
3	0x3df51b99	0.119681545
4	0xbeed2aea	-0.46321803
5	0xbd613f2c	-0.054991886
6	0x3a0c0f89	0.0005342891
7	0x3d039ce2	0.032132037
8	0xbdbc7f74	-0.09203997
9	0xbe285994	-0.16440421
10	0x3de00f5e	0.10940431
11	0xbe878f0e	-0.2647633
12	0xbe38e571	-0.18056275
13	0xbdf73999	-0.12071533
14	0xbe0334c6	-0.128131
15	0xbe9bb117	-0.30408546
16	0xbd16705f	-0.03672826
17	0xbe0e73f7	-0.13911425
18	0xbd4c853c	-0.04993175
19	0xbe383c89	-0.17991842
20	0xbe216fa1	-0.1576524
21	0xba7d0a61	-0.00096527307
22	0xbdb89538	-0.09012836
23	0xbdd999bd	-0.106250264
24	0xbc90433b	-0.017610183
25	0xbdd37e11	-0.1032678
26	0x3b65c104	0.0035057673
27	0xbde410c7	-0.111360125
28	0xbe8009ea	-0.25007564
29	0xbdff7d12	-0.12475027
30	0xbd96c027	-0.07360869
31	0xbe9fb850	-0.31195307

sequential/conv2d_2/BiasAdd;sequential/conv2d_1/Conv2D;sequential/conv2d_2/Conv2D;conv2d_2/bias f4 [16]
0	0xbe1bbbd9	-0.15208377
1	0xbded7a0e	-0.11595546
2	0x3d76ac84	0.060223117
3	0xbdc9d364	-0.09854773
4	0xbe0942b2	-0.13404348
5	0xbde91d4a	-0.113825396
6	0xbe14384a	-0.14474598
7	0xbe16c692	-0.14724186
8	0xbcf524c5	-0.02992476
9	0xbdccd42a	-0.100014046
10	0x3d759540	0.05995679
11	0xbe10a4d4	-0.14125377
12	0xbe6bf96d	-0.23044367
13	0x3cf9b654	0.030482449
14	0xbe1b9876	-0.15194878
15	0xbca3c54c	-0.01999154

sequential/conv2d_1/BiasAdd;sequential/conv2d_1/Conv2D;conv2d_1/bias f4 [16]
0	0x3ca79dbb	0.020460954
1	0x3d8d38e1	0.068956144
2	0x3d0145d4	0.031560734
3	0x3d85445c	0.06507179
4	0x3c16b36d	0.009198052
5	0x3d62c956	0.05536779
6	0x3c3ef544	0.011655156
7	0x39285aae	0.0001605551
8	0xbd601818	-0.054710478
9	0x3d8f989f	0.07011532
10	0xbd5daabd	-0.054117907
11	0x3a15fda4	0.00057216943
12	0x3d02a2b6	0.031893454
13	0x3cb9ea95	0.022694865
14	0xbd92d244	-0.07169011
15	0xbc940d12	-0.018072639

sequential/conv2d/BiasAdd;sequential/conv2d/Conv2D;conv2d/bias f4 [8]
0	0x3c5f570c	0.013631593
1	0xbb43ce1a	-0.0029877485
2	0xbbad4855	-0.0052881637
3	0x3c98cc2b	0.018652042
4	0x3bd173e6	0.00639199
5	0x3c57e3cc	0.01317687
6	0xbbd65d31	-0.006541871
7	0x3c3d55e2	0.011556121

sequential/conv2d_4/Conv2D f4 [32, 3, 3, 32]
0	0xbdabc090	-0.08386338
1	0xbe4b20dc	-0.19836754
2	0xbda53bb2	-0.080680266
3	0xbe1f76ad	-0.15572615
4	0xbd0f6655	-0.0350097
5	0xbc6777f4	-0.01412772
6	0x3de653c1	0.112464435
7	0xbd057138	-0.032578677
8	0x3ba45306	0.00501478
9	0x3c9c1823	0.019054478
10	0xbd71f5cd	-0.059072305
11	0xbe298a9d	-0.16556783
12	0x39783426	0.0002367055
13	0x3c353ed3	0.011062342
14	0x3de0d146	0.10977416
15	0x3e1b0d36	0.15141758
16	0xbd7cb31f	-0.06169426
17	0xbcfb6442	-0.030687455
18	0x3d32a409	0.043613467
19	0xbc8b6c37	-0.017019374
20	0x3deef2d7	0.11667412
21	0xbbfaff02	-0.007659794
22	0x3c42d097	0.011890552
23	0xbd34db2a	-0.044154324
24	0xbd8d673f	-0.06904458
25	0x3cabfbe5	0.020994136
26	0xbe0b2d50	-0.13591504
27	0xbd5b7785	-0.05358078
28	0xbcbfddca	-0.023421187
29	0x3d380e2c	0.04493539
30	0xbd4b9206	-0.049699806
31	0x3c6675e4	0.014066193
32	0x3d276f2f	0.040877517
33	0xbcee504f	-0.029091028
34	0xbd7027c2	-0.058631666
35	0xbc89553c	-0.016764276
36	0xbdc90aea	-0.09816535
37	0x3e539694	0.2066291
38	0x3da41b2e	0.080129966
39	0x3de92baf	0.11385285
40	0xbe481df5	-0.19542678
41	0xbdbd53da	-0.09244509
42	0xbdef849b	-0.11695214
43	0xbcc6fdc6	-0.02429093
44	0x3cf37fd4	0.02972404
45	0x3d076447	0.033054616
46	0x3e3f0c4f	0.18657039
47	0x3e39756a	0.18111196
48	0x3e0e5084	0.13897902
49	0xb8c07f87	-9.179027e-05
50	0x3def85b9	0.116954274
51	0x3d7a3280	0.061083317
52	0xbd0ce7c8	-0.03440073
53	0x3d50d64f	0.05098563
54	0x3da60b16	0.08107583
55	0x3cda4f2d	0.026649082
56	0x3de7ed41	0.113245495
57	0x3e762843	0.24038796
58	0xbe8a90ae	-0.27063507
59	0xbd266d0e	-0.040631346
60	0x3d844ad2	0.06459583
61	0xbb71ab1c	-0.003687567
62	0xbde69985	-0.1125975
63	0x3dca74a0	0.09885526
64	0xbd252b47	-0.040324476
65	0x3de9187d	0.11381624
66	0x3e0fd6b3	0.14046745
67	0x3de34231	0.110966094
68	0x3c48820e	0.012238039
69	0x3dbc905b	0.09207221
70	0xbde71d2f	-0.11284863
71	0xbe0acf84	-0.13555723
72	0xbe2c2e38	-0.16814506
73	0xbe1d1fad	-0.15344115
74	0xbcfa42c1	-0.030549409
75	0xbe1ae769	-0.15127338
76	0xbd329e40	-0.04360795
77	0xbb88adfc	-0.004171131
78	0xbc44d8d8	-0.01201459
79	0x3e2afb2d	0.16697378
80	0x3db38676	0.08765881
81	0x3d59a538	0.05313608
82	0xbe91915a	-0.28431207
83	0x3e17f839	0.14840783
84	0x3cef74b5	0.029230455
85	0x3e17a353	0.14808397
86	0x3dfcf631	0.12351645
87	0x3da88671	0.08228768
88	0x3e65a635	0.22426684
89	0xbc71c082	-0.01475537
90	0xbe262af9	-0.1622733
91	0x3d622188	0.05520776
92	0x3d9515ca	0.072795466
93	0xbd308796	-0.043098055
94	0xbe3f32e3	-0.18671755
95	0xbe04294b	-0.12906377
96	0xbdd859d0	-0.105640054
97	0x3d1b5e09	0.037931476
98	0x3c3ae0c9	0.011406132
99	0xbe2e963f	-0.17049502
100	0x3c4ad317	0.012379429
101	0xbd128d9c	-0.03577958
102	0xbadaa176	-0.0016680199
103	0xbd525017	-0.05134591
104	0xbc853d3c	-0.01626455
105	0xbe237992	-0.15964344
106	0xbce635ec	-0.028101884
107	0x3dc21f9a	0.09478684
108	0xbe2939d6	-0.16525969
109	0x3e466319	0.1937374
110	0xbe14c00a	-0.14526382
111	0x3daaa0c6	0.08331446
112	0xbe437234	-0.19086534
113	0xbe25cdab	-0.16191737
114	0x3e01bbb8	0.12669265
115	0xbd8b8af3	-0.06813612
116	0x3cd9d71b	0.026591828
117	0x3de916f6	0.113813326
118	0x3d1ea958	0.038735718
119	0xbd7f2e60	-0.062300086
120	0x3cd0dbca	0.025495429
121	0x3e071793	0.13192587
122	0x3d3442b0	0.04400891
123	0x3d770e9a	0.06031666
124	0x3e08dbfe	0.1336517
125	0xbd010444	-0.03149821
126	0xbdab5795	-0.08366314
127	0x3dbb2a88	0.091389716
128	0x3d02046e	0.031742506
129	0x3de59c9c	0.112115115
130	0x3ceb822a	0.02874859
131	0x3c43a9c4	0.011942331
132	0x3d243352	0.040088005
133	0xbd68fc5c	-0.056881294
134	0x3b8029fb	0.0039112545
135	0xbddc57b6	-0.10758917
136	0xbcdfac44	-0.027303822
137	0xbd98d583	-0.07462599
138	0xbd8d4db1	-0.06899584
139	0xbb9baa9c	-0.004750563
140	0xbd7f2e0f	-0.062299784
141	0x3d9cf89f	0.07664608
142	0x3dbb47cd	0.09144554
143	0x3cf06e30	0.029349416
144	0xba0bd154	-0.00053336215
145	0x3dda3b9f	0.10655903
146	0xbdf72f24	-0.12069538
147	0x3dbc46a6	0.091931626
148	0x3d54a53a	0.051915385
149	0xbc8b3fa3	-0.016998118
150	0x3da14fad	0.07876525
151	0xbd907028	-0.07052642
152	0x3da5b91c	0.080919474
153	0x3b93dc17	0.0045123207
154	0x3d415446	0.04719951
155	0xbd047f62	-0.032348044
156	0x3dbc52c3	0.09195473
157	0xbdd47349	-0.103735514
158	0x3cffba14	0.031216659
159	0x3d6369cd	0.05552082
160	0x3e180185	0.1484433
161	0x3e10f0d6	0.14154372
162	0x3e2bdb8a	0.16782966
163	0xbd6ae2e6	-0.057345293
164	0x3dc5f210	0.096653104
165	0xbd03d3ea	-0.03218452
166	0xbe748c4c	-0.23881644
167	0xbbcd7fe7	-0.0062713507
168	0x3b9e0b7a	0.0048231455
169	0xbd53bc4e	-0.051693253
170	0x3daeada0	0.0852921
171	0xbe65789f	-0.22409295
172	0x3dc68efd	0.096952416
173	0xbdf8d3c4	-0.12149766
174	0xbe089c4f	-0.13340877
175	0xbcea01d4	-0.028565325
176	0xbde8f1cd	-0.11374245
177	0xbd2f2a02	-0.04276467
178	0xbd701008	-0.05860904
179	0xbc237e63	-0.009978863
180	0x3db86e2b	0.09005388
181	0x3deccf60	0.11562991
182	0xbd85cbce	-0.06533013
183	0xbcb41694	-0.021983422
184	0x3c09a019	0.008399987
185	0xbdbe7272	-0.092991725
186	0xbd1e6927	-0.0386745
187	0xbdd049c8	-0.10170323
188	0x3c3dc913	0.011583584
189	0x3d3c9865	0.046043772
190	0x3dcceb44	0.10005811
191	0xbda5872a	-0.08082421
192	0xbce9cc11	-0.02853969
193	0xbdd97592	-0.10618128
194	0x3dc4998c	0.09599599
195	0xbc4a1117	-0.012333176
196	0x3c4dd88f	0.012563839
197	0x3a9fd146	0.0012193106
198	0xbde32ba9	-0.11092312
199	0xbd23c580	-0.039983273
200	0xbc8af7b6	-0.01696382
201	0xbd6812a4	-0.056658402
202	0xbdf89692	-0.12138094
203	0x3d3b88b1	0.045784656
204	0xbe8da931	-0.27668145
205	0xbe7fbfbb	-0.24975483
206	0x3d97c7fd	0.074111916
207	0x3d4f651f	0.050633546
208	0xbdb59640	-0.088665485
209	0xbe6930e4	-0.22772557
210	0xbdf66f9e	-0.12033008
211	0x3de6e901	0.11274911
212	0x3cf62c12	0.030050311
213	0xbd07b68d	-0.03313308
214	0x3cc5c1e0	0.024140298
215	0xbc01ebad	-0.007929725
216	0x3d46a64a	0.04849843
217	0xbd7e8085	-0.062134285
218	0x3dc31e2b	0.095272385
219	0x3dab2638	0.08356899
220	0x3d30b0ae	0.043137245
221	0x3d4438b9	0.047905657
222	0x3d55c25d	0.052187312
223	0x3e3c4e42	0.18389228
224	0x3d8b725c	0.06808922
225	0xbd37f095	-0.04490717
226	0xbba3847a	-0.0049901577
227	0xbdafd03d	-0.0858464
228	0x3df3e871	0.11909569
229	0xbc985e7f	-0.018599747
230	0xbdd33143	-0.1031213
231	0xbdfbb9ec	-0.12291321
232	0xbc0a7801	-0.008451463
233	0xbd7bcdc5	-0.061475534
234	0xbbad1975	-0.0052825757
235	0xbcfbc2a2	-0.030732457
236	0x3e115b59	0.14195003
237	0xbee3c913	-0.44489345
238	0x3d5864a0	0.05283034
239	0xbd5e47b0	-0.054267585
240	0xbdf6f009	-0.12057502
241	0xbe001ecf	-0.12511753
242	0xb9b90738	-0.00035291328
243	0x3c64f80f	0.013975157
244	0x3d90e83d	0.07075546
245	0xbea03b47	-0.31295225
246	0xbe1a97e2	-0.15097001
247	0xbe0a52df	-0.13508175
248	0x3e3fb335	0.18720706
249	0xbe0377a0	-0.12838602
250	0x3d46cc62	0.04853476
251	0x3da9ee3d	0.082973935
252	0x3d109e99	0.0353075
253	0xbe116b91	-0.1420119
254	0x3d07f790	0.03319508
255	0x3cf85b56	0.03031699

sequential/conv2d_3/Conv2D f4 [32, 3, 3, 16]
0	0xbd08f02f	-0.033432182
1	0x3da37088	0.07980448
2	0x3d7f169e	0.06227743
3	0x3d5f1eb2	0.054472633
4	0x3e3b0250	0.18262601
5	0xbdca36ab	-0.09873708
6	0x3d760823	0.060066354
7	0xbd8a1c9e	-0.067437395
8	0xbc680098	-0.014160298
9	0xbda4e9e8	-0.080524266
10	0xb899f85e	-7.3418705e-05
11	0x3d7c0a67	0.061533358
12	0xbd30bcb5	-0.043148715
13	0x3e1d7aa4	0.15378815
14	0x3d99cab6	0.07509367
15	0xba1cbf61	-0.00059794454
16	0xbd761d77	-0.060086694
17	0x3e4059f9	0.18784322
18	0xbd7a875e	-0.061164252
19	0xbb3573c4	-0.002768741
20	0x3e1504f2	0.14552668
21	0x3d8e0296	0.06934087
22	0x3dd2438c	0.1026679
23	0xbd062a27	-0.032755043
24	0x3dc58863	0.09645154
25	0x3c9f87fd	0.019474024
26	0x3c96ca40	0.018406987
27	0x3d3cbd0c	0.046078727
28	0x3e4b9a3d	0.19883056
29	0x38bbcf22	8.955436e-05
30	0x3dbfee40	0.093716145
31	0x3df3ec77	0.119103365
32	0xbd2e8d47	-0.0426152
33	0xbc9756ef	-0.01847407
34	0x3c70be37	0.014693788
35	0x3d270df1	0.04078478
36	0x3c7ea810	0.015542999
37	0x3bdcb02a	0.0067348676
38	0xbe238fa0	-0.15972757
39	0xbe2071ba	-0.15668383
40	0x3d987743	0.07444622
41	0x3c9055bf	0.017619012
42	0x3df3eb8f	0.119101636
43	0x3e3934fb	0.18086617
44	0x3e07e603	0.13271336
45	0x3dd36a06	0.10322957
46	0xbddca9d7	-0.10774582
47	0xbc58c573	-0.013230669
48	0xbd352e63	-0.04423369
49	0xbd8b06b9	-0.067883916
50	0x3c182ce7	0.009288049
51	0x3da162fd	0.07880209
52	0x3c6c35b8	0.014417104
53	0xbe524ca6	-0.20537052
54	0xbdc5460e	-0.096325025
55	0xbbcc2267	-0.006229687
56	0xbd42c7f3	-0.047553968
57	0xbd790259	-0.060793255
58	0xb95a0d1d	-0.00020794985
59	0x3cf229ac	0.029560886
60	0x3e5dc936	0.21658787
61	0xbe0a93df	-0.13532971
62	0xbcc66e22	-0.024222437
63	0x3d93d089	0.07217509
64	0xbe21c85b	-0.15799086
65	0x3c4d270a	0.012521515
66	0xbe37d388	-0.17951787
67	0x3ddd0413	0.10791793
68	0x3d8ff158	0.070284545
69	0x3d211fce	0.039336972
70	0x3e1d2b9e	0.1534867
71	0xbdf789a0	-0.12086797
72	0x3dc44fd8	0.095855415
73	0xbd843c17	-0.06456774
74	0xbc9d28bc	-0.019184463
75	0x3d0439df	0.032281753
76	0x3df6de8f	0.120541684
77	0x3e17e350	0.14832807
78	0xbdcb195e	-0.09916948
79	0x3e2c0ed4	0.16802531
80	0xbe3feba2	-0.1874223
81	0xbd38c6cf	-0.045111474
82	0xbe571e95	-0.2100776
83	0x3e06393a	0.13107768
84	0xbd66ebf1	-0.056377355
85	0x3e2ffab9	0.17185487
86	0xbe5ccc07	-0.21562205
87	0x3e80add6	0.25132626
88	0xbcafcf7e	-0.021461245
89	0x3ca7e287	0.020493759
90	0xbe036e58	-0.12835062
91	0x3e4527c5	0.19253452
92	0x3d0a735b	0.033801418
93	0x3e3729f8	0.17887104
94	0x3e0ac1ef	0.13550542
95	0x3ddf5dd4	0.10906568
96	0x3e1a3991	0.15061022
97	0x3d1655b0	0.03670281
98	0x3d6265fc	0.05527304
99	0x3d41804a	0.047241487
100	0x3cb242da	0.021760393
101	0xbce21b18	-0.02760081
102	0xbd5bae5a	-0.05363307
103	0x3c1e5ea5	0.00966612
104	0x3e6e6493	0.23280554
105	0x3d012bfa	0.03153608
106	0x3dd821b6	0.10553305
107	0xbc3d9e87	-0.01157344
108	0xbbe93a7c	-0.0071175676
109	0xbd4758fd	-0.04866885
110	0xbd830975	-0.06398288
111	0x3d49828f	0.049196776
112	0xbcb33d39	-0.02187978
113	0x3da996a4	0.082806855
114	0x3d42c494	0.047550753
115	0x3be7ded8	0.0070761256
116	0x3d84dd1e	0.06487487
117	0xbdfe0bc4	-0.12404588
118	0x3d3de818	0.04636392
119	0xbde93707	-0.11387449
120	0x3ceda126	0.029007506
121	0x3cf4929b	0.029855063
122	0x3d6b9995	0.057519514
123	0xbc9c10b7	-0.019050939
124	0x3d7fd06b	0.062454622
125	0x3d062d3d	0.032757986
126	0xb9793538	-0.00023766316
127	0x3de074f7	0.10959809
128	0xbe557195	-0.2084411
129	0xbd27f2e9	-0.04100314
130	0xbdedb98a	-0.116076544
131	0x3d1c3345	0.038134832
132	0xbe15dba2	-0.14634565
133	0x3dd12ca2	0.10213591
134	0x3cc3fff8	0.023925766
135	0x3ddaca73	0.106831454
136	0xbdaea438	-0.08527416
137	0x3d62d43f	0.055378195
138	0x3cb0d774	0.021587111
139	0x3e3902b9	0.18067445
140	0xbd2a8859	-0.041633938
141	0x3db33b8a	0.087515905
142	0x3e0e3cba	0.13890353
143	0x3e20c08f	0.15698455
144	0x3d76f449	0.060291562
145	0x3d029e29	0.031889115
146	0x3d91b9cf	0.07115518
147	0xbb638a1c	-0.003471977
148	0x3d832df9	0.06405253
149	0xbca424c6	-0.020037066
150	0x3c91cf50	0.01779905
151	0xbe561a55	-0.20908482
152	0x3d1d2036	0.038360797
153	0xbe5cf36a	-0.2157723
154	0xbbe6512b	-0.007028719
155	0xbd7b3bcc	-0.061336324
156	0x3d815d10	0.063165784
157	0xbe46df37	-0.19421087
158	0x3d330334	0.043704227
159	0x3d857b0b	0.06517609
160	0x3d057110	0.032578528
161	0x3d037f48	0.032103807
162	0x3db3cab7	0.08778899
163	0xbdf85801	-0.121261604
164	0xbd10152f	-0.035176452
165	0xbdb46a57	-0.08809345
166	0xbda8643e	-0.08222245
167	0xbde2e8b7	-0.11079543
168	0xbd8e310e	-0.0694295
169	0x3dc55ffd	0.09637449
170	0x3d8e1c71	0.069390185
171	0x3d18cb38	0.03730318
172	0x3d8cf6b5	0.06882993
173	0xbdb7eba6	-0.08980493
174	0xbe52fa0c	-0.20603198
175	0x3e767c3b	0.24070828
176	0x3e352741	0.17690755
177	0x3c300470	0.0107432455
178	0x3d858893	0.0652019
179	0xbd7cb42f	-0.061695274
180	0xbdc0a1ab	-0.09405836
181	0x3d786f51	0.060653035
182	0x3dbbc29d	0.09167979
183	0x3cc79c65	0.024366567
184	0x3db0da88	0.086354315
185	0xbdf4b5e5	-0.11948756
186	0x3e1b0816	0.15139803
187	0x3da00856	0.0781409
188	0x3e587164	0.21137005
189	0x3da64019	0.081176944
190	0xbe74d3f7	-0.23908983
191	0x3c7dbb91	0.015486614
192	0xbdfb9395	-0.122840084
193	0x3d978e94	0.074002415
194	0x3dd87aae	0.10570274
195	0xbe2ff7dc	-0.17184395
196	0xbd4a0516	-0.049321257
197	0xbd7fa914	-0.062417105
198	0xbdb46756	-0.08808772
199	0x3d000249	0.03125218
200	0xbe19e5f6	-0.1502913
201	0xbdd3ae15	-0.10335938
202	0xbdf6914e	-0.120394334
203	0xbda44baa	-0.08022244
204	0xbd6473fa	-0.055774666
205	0xbe21f4b7	-0.15816008
206	0x3cdb4dd3	0.026770508
207	0x3d7d3902	0.061821945
208	0xbda84725	-0.08216695
209	0x3df6a286	0.12042718
210	0xbc09005b	-0.008361901
211	0xbd9b6a82	-0.07588674
212	0x3cea0797	0.028568072
213	0xbe2091b0	-0.15680575
214	0x3e4f867a	0.20266142
215	0xbe014ac9	-0.12626185
216	0xbc7bf03d	-0.0153771015
217	0x3dbef1df	0.09323477
218	0xbe1b4ceb	-0.1516606
219	0xbaa8c7a3	-0.0012876879
220	0x3e39ab24	0.18131691
221	0xbdd71bb9	-0.105033346
222	0xbdca4b06	-0.09877591
223	0x3e41bb9c	0.18919224
224	0x3e28f354	0.16499072
225	0x3db21dcf	0.08697092
226	0x3d257401	0.040393833
227	0x3dd34889	0.10316569
228	0x3c45ae68	0.0120655075
229	0x3c147f9e	0.009063629
230	0x3e75ff54	0.24023181
231	0xbc00e5fa	-0.007867331
232	0x3c2a3ef8	0.0103909895
233	0xbd9d7810	-0.07688916
234	0x3ddf1791	0.10893167
235	0xbd702530	-0.058629215
236	0x3df3c6e7	0.11903172
237	0x3d06ab7a	0.032878377
238	0x3e1feed1	0.15618445
239	0xbe1eba16	-0.15500674
240	0xbd0b018e	-0.03393703
241	0x3a514d80	0.00079842657
242	0x3d358db2	0.044324584
243	0xbae95bad	-0.0017803811
244	0xbd229f34	-0.03970261
245	0x3d702953	0.05863316
246	0xbe16dc0b	-0.14732377
247	0x3d934903	0.0719166
248	0x3d7c1cb9	0.06155083
249	0x3c55131c	0.013005044
250	0xbe1201d9	-0.14258517
251	0x3d241d3b	0.04006694
252	0x3d6e91ab	0.05824439
253	0x3e02efaa	0.12786737
254	0x3dc4701a	0.09591694
255	0x3da6f9f9	0.08153147

sequential/conv2d_2/Conv2D f4 [16, 3, 3, 16]
0	0x3d0f4097	0.034973707
1	0x3dd91892	0.106003895
2	0xbd6cf5f3	-0.057851743
3	0x3d3d4c41	0.0462153
4	0xbdaf3ff7	-0.08557122
5	0x3dcdfdae	0.10058151
6	0xbe1b48c3	-0.15164475
7	0x3d1ae26c	0.03781359
8	0xbe0246b4	-0.12722284
9	0x3dc386cc	0.09547195
10	0x3ddc5f57	0.10760372
11	0x3ccc3c77	0.024931176
12	0x3d42a40d	0.047519732
13	0x3e3bd15a	0.1834158
14	0xbd3aa7b4	-0.04557009
15	0xbe17351f	-0.14766358
16	0x3e053f48	0.13012421
17	0x3d5100ac	0.05102603
18	0xbe377084	-0.17914015
19	0x3de58206	0.11206441
20	0xbd599a67	-0.053125765
21	0x3d04854a	0.032353677
22	0x3dcc8f1b	0.09988233
23	0x3d52097a	0.05127857
24	0x3c0a0e13	0.008426207
25	0x3d4153cd	0.04719906
26	0x3d407b6c	0.046992704
27	0xbb2fad7a	-0.002680628
28	0x3dec4b75	0.1153783
29	0x3e325a8f	0.17417358
30	0x3df9a3d1	0.121894486
31	0xbe0f939c	-0.14021152
32	0x3e20d355	0.15705617
33	0x3e21d04f	0.1580212
34	0xbe2eccba	-0.17070284
35	0xbd97c814	-0.07411209
36	0xbe19adcc	-0.15007704
37	0xbe111484	-0.14167982
38	0x3ccb16f6	0.024791222
39	0xbd0853c0	-0.033282995
40	0xbe1bb392	-0.1520522
41	0xbd66ccdd	-0.056347717
42	0xbbf77871	-0.0075521995
43	0x3d9ef682	0.077618614
44	0xbb6a54be	-0.0035756077
45	0x3ddf4979	0.10902686
46	0x3e258934	0.1616562
47	0xbdf6489b	-0.12025567
48	0x3e8f9dfd	0.28050223
49	0xbd3e70f5	-0.046494443
50	0xbd814111	-0.063112386
51	0xbe4b2f60	-0.19842291
52	0x3dda58fd	0.106615044
53	0x3e17b906	0.14816675
54	0x3d94603b	0.07244917
55	0xbcb18e16	-0.021674197
56	0xbde7f751	-0.11326469
57	0x3e36b917	0.17844044
58	0x3e00309c	0.12518543
59	0x3db159df	0.0865972
60	0x3dad3cae	0.08458839
61	0x3d3b2676	0.045690976
62	0x3caf724f	0.021416811
63	0xbd78aa99	-0.06070957
64	0x3e2054f4	0.15657407
65	0xbc306f73	-0.010768759
66	0x3d520501	0.051274303
67	0xbe5f86c6	-0.21828756
68	0x3e8afb2b	0.2714475
69	0xbdda24bd	-0.106515385
70	0x3e129a68	0.14316714
71	0xbe477ee7	-0.19482003
72	0x3ce6178e	0.028087404
73	0x3c37ded9	0.011222565
74	0x3dd9e95b	0.10640212
75	0x3de1cff9	0.11025996
76	0x3ce70750	0.028201729
77	0xbdf15827	-0.11784392
78	0x3e2c1b85	0.16807373
79	0x3c4ecc3a	0.012621934
80	0x3d40c6c4	0.047064558
81	0xbe0733f5	-0.13203414
82	0x3e3b8c90	0.18315339
83	0xbe027d76	-0.12743172
84	0x3e5808ab	0.21097057
85	0xbda30c11	-0.07961286
86	0x3e1c5da9	0.15270104
87	0xbd72f12e	-0.059312038
88	0xbe4081ae	-0.18799469
89	0xbd6d93e1	-0.058002356
90	0x3e24e0e6	0.16101417
91	0x3de6e9e9	0.112750836
92	0xbe3a716b	-0.18207328
93	0xbe2bfd6c	-0.16795892
94	0x3d9a1e55	0.075253166
95	0xbde41b56	-0.111380264
96	0x3e02ba14	0.12766296
97	0x3d8594df	0.065225355
98	0x3e01facb	0.12693326
99	0xbd2edd01	-0.042691234
100	0x3d169fd5	0.03677352
101	0x3c15a9fa	0.009134764
102	0x3d1d4995	0.03840025
103	0x3d6ed834	0.058311656
104	0x3ca0c8f2	0.019627068
105	0xbda23970	-0.079211116
106	0xbacd3829	-0.0015656996
107	0xbeac41be	-0.33643907
108	0x3db2306d	0.08700643
109	0xbe0d95ed	-0.13826723
110	0xbdfa2a33	-0.1221508
111	0x3cdfd979	0.027325379
112	0x3e4f0cd6	0.2021974
113	0x3de3e4cc	0.11127624
114	0x3e05cfae	0.13067505
115	0xbd8cd6b9	-0.068768926
116	0x3e1d5567	0.1536461
117	0xbce467b1	-0.027881475
118	0x3e34a71d	0.17641874
119	0x3c9e5a77	0.019330246
120	0xbbae5496	-0.005320142
121	0xbdf96e98	-0.12179297
122	0x3e2a6df1	0.16643502
123	0xbe01d37d	-0.12678333
124	0x3e0944bd	0.13405128
125	0xbd4b13ca	-0.04957942
126	0xbcdaa2d2	-0.026688967
127	0x3dabdd5f	0.083918326
128	0xbd264409	-0.040592227
129	0xbd6e8fb0	-0.0582425
130	0x3d87f4f8	0.06638521
131	0x3de4e9fe	0.11177443
132	0x3e2d31a3	0.16913466
133	0xbd113d91	-0.035459105
134	0x3daed4ec	0.085367054
135	0x3d7400fb	0.059571248
136	0x3c8e436f	0.01736614
137	0xbd7e1767	-0.062034037
138	0x3dcd4517	0.100229435
139	0xbd0c8c36	-0.034313403
140	0xbd4e97bf	-0.050437685
141	0xbd8d551c	-0.06900999
142	0xbcf7305d	-0.030174429
143	0x3be0ff3f	0.006866365
144	0x3c098208	0.008392818
145	0xbd6a1cc7	-0.05715635
146	0x3e9f2114	0.31079924
147	0xbd823a48	-0.063587725
148	0x3d7d697e	0.061868183
149	0xbc9198e1	-0.017773094
150	0x3d1e2561	0.038609866
151	0x3b1a3a9a	0.0023533464
152	0x3db894ef	0.09012782
153	0xbdb89d47	-0.09014373
154	0xbdd65955	-0.104662575
155	0xbd9ad575	-0.07560245
156	0xbc6cf816	-0.014463445
157	0x3d3cd368	0.04610005
158	0x3cb0c61c	0.02157884
159	0x3da73a07	0.08165365
160	0xbe5d3b9d	-0.21604772
161	0x3dfe2fac	0.124114364
162	0x3df0be81	0.11755086
163	0xbb686d13	-0.0035465404
164	0xbe5296ba	-0.2056531
165	0x3cdd0855	0.026981512
166	0xbdb5437b	-0.088507615
167	0x3da978a1	0.08274961
168	0xbdc24d9a	-0.094874576
169	0x3e1420d8	0.14465654
170	0x3d80d387	0.06290346
171	0xbe2feef6	-0.17181
172	0xbdcc0743	-0.099623226
173	0xbd09e9ad	-0.033670116
174	0x3d6211d7	0.055192795
175	0xbdbfa641	-0.09357882
176	0xbd04750e	-0.032338195
177	0x3e0af37a	0.13569441
178	0xbe38d1f5	-0.18048842
179	0x3d6c72ae	0.057726555
180	0xbc045c85	-0.008078699
181	0xbe800b8f	-0.25008819
182	0x3e4d90b4	0.20074731
183	0x3d8a8acb	0.06764754
184	0x3ca06199	0.019577788
185	0x3d9d5f08	0.076841414
186	0x3e21a04b	0.15783803
187	0x3e3f1b58	0.18662775
188	0xbe4060ad	-0.18786879
189	0x3e78f103	0.24310689
190	0xbd487a52	-0.04894478
191	0xbe4b3f88	-0.19848454
192	0xbc9d1ebe	-0.019179698
193	0x3d8357aa	0.06413205
194	0x3e2dc7dd	0.16970773
195	0x3da9d568	0.08292657
196	0xbce0642c	-0.027391516
197	0x3d8bd8bc	0.06828448
198	0xbde53ee1	-0.11193634
199	0x3c932d97	0.017966075
200	0xbdb8eb67	-0.090292744
201	0xbd2efc86	-0.042721294
202	0x3dc9b152	0.09848274
203	0xbe7b3c94	-0.24534827
204	0xbdfc3acf	-0.12315904
205	0x3dd23447	0.10263877
206	0xbad18a0c	-0.0015986576
207	0xbb412345	-0.0029470485
208	0xbcbc74be	-0.023004886
209	0xbcc6a79c	-0.024249844
210	0xbd66cbe9	-0.056346808
211	0x3e0ec887	0.13943683
212	0xbdcbc889	-0.099503584
213	0xbdf2ae65	-0.11849669
214	0x3d567c56	0.05236467
215	0xbd189209	-0.037248645
216	0x3d9b068e	0.075696096
217	0x3db35343	0.08756115
218	0xbc04ed34	-0.008113194
219	0xbd05633d	-0.032565344
220	0x3d7f8083	0.062378418
221	0x3e0ba476	0.13636956
222	0x3d8607bc	0.06544444
223	0xbe4a3706	-0.19747552
224	0x3e4be376	0.19910988
225	0xbdcd4777	-0.100233965
226	0xbe4d7651	-0.20064665
227	0xbd862fc6	-0.06552081
228	0x3e08cc54	0.13359195
229	0xbe0027f8	-0.12515247
230	0x3e52d588	0.20589268
231	0x3b44dee4	0.003004008
232	0xbb408936	-0.002937866
233	0xbd791997	-0.06081542
234	0x3e474f0f	0.19463752
235	0x3d0e191b	0.03469191
236	0x3cecb554	0.028895058
237	0x378de1d8	1.6913677e-05
238	0x3da946fa	0.08265491
239	0xbd3f2d36	-0.046673976
240	0xbdae8d97	-0.085231
241	0x3e42eedf	0.19036435
242	0xbe02c561	-0.12770607
243	0x3e704e32	0.23467329
244	0xbdccbd07	-0.099969916
245	0x3d99d04b	0.07510432
246	0xbdea2f9f	-0.11434864
247	0xbcc9a19c	-0.024613194
248	0x3dda20b6	0.1065077
249	0xbdc7d8aa	-0.09758122
250	0x3e028c1b	0.12748758
251	0xbe597a0f	-0.21237968
252	0x3c2bcc09	0.0104856575
253	0x3d8161a1	0.06317449
254	0xbd85247f	-0.06501102
255	0xbd02ba2f	-0.03191584

sequential/conv2d_1/Conv2D f4 [16, 3, 3, 8]
0	0x3e9da1ac	0.30787408
1	0x3ddf386a	0.10899432
2	0x3c8d7fad	0.017272795
3	0xbdf90459	-0.121590324
4	0xbd71f005	-0.05906679
5	0xbd45cf15	-0.048293192
6	0x3bf551dd	0.0074865655
7	0xbd9ff2bc	-0.0780997
8	0x3d8dfe29	0.06933243
9	0x3cba6882	0.022754911
10	0x3c0e9f83	0.008705023
11	0x3dc3aea9	0.09554798
12	0xbe53c924	-0.20682198
13	0xbe71d352	-0.23615769
14	0xbd935576	-0.07194035
15	0xbe62554b	-0.22102849
16	0x3e203321	0.15644504
17	0xbc431ab3	-0.011908221
18	0x3e3c3c4c	0.18382376
19	0xbdbf51f8	-0.09341806
20	0x3d1b49b4	0.037912086
21	0xbe785668	-0.24251711
22	0x3e0a9362	0.13532785
23	0x3df84265	0.12122039
24	0xbc1bb496	-0.009503504
25	0x3e2390e3	0.15973239
26	0xbd93fc89	-0.07225902
27	0x3e104052	0.14087036
28	0xbcb88b94	-0.022527494
29	0x3eb3792c	0.35053384
30	0xbd0e15a8	-0.03468862
31	0xbe29ff56	-0.16601309
32	0xbde6434a	-0.11243303
33	0xbca40f0d	-0.020026708
34	0xbd9a9778	-0.075484216
35	0x3e8416ed	0.2579874
36	0x3db75f4f	0.089537255
37	0x3e6cc0e7	0.23120461
38	0xbdfbcd21	-0.122949846
39	0xbe8e7cc6	-0.2782957
40	0xbcfed0ad	-0.031105364
41	0x3d9a1f41	0.075254925
42	0x3e14dc84	0.14537245
43	0x3e48cde9	0.19609798
44	0x3a75982a	0.00093686825
45	0xbc5adc09	-0.0133581245
46	0x3df7a212	0.12091459
47	0xbe283077	-0.16424738
48	0x3b8066fe	0.0039185276
49	0xbc5a0215	-0.01330616
50	0x3cdb2c29	0.026754456
51	0xbe3b024e	-0.18262598
52	0xbd5edcdc	-0.054409847
53	0xbde05cb5	-0.109551825
54	0x3e173e68	0.147699
55	0x3dfe4246	0.124149844
56	0xbdb342ba	-0.087529615
57	0xbcdaa042	-0.026687745
58	0x3e29856b	0.16554801
59	0xbe4301ae	-0.1904361
60	0xbd278f81	-0.04090834
61	0xbba9731e	-0.0051711937
62	0xbe145b1b	-0.14487879
63	0x3dba703c	0.09103438
64	0xbd6a7a1f	-0.05724537
65	0xbd8bea96	-0.06831853
66	0xbc05e425	-0.00817207
67	0xbd00cb10	-0.031443655
68	0x3c9b85c9	0.018984692
69	0x3e6129f3	0.21988659
70	0xbcfcbe7d	-0.03085255
71	0xbc45eb2e	-0.012079997
72	0xbdde4c14	-0.108543545
73	0x3dfab369	0.12241251
74	0x3ddf9b69	0.10918314
75	0x3d9c55a4	0.07633522
76	0xbcb7694f	-0.022389082
77	0xbd1b9f73	-0.03799386
78	0x3d882072	0.066468135
79	0x3e312d14	0.17302352
80	0x3d5cb5e7	0.053884413
81	0x3cd22617	0.025652928
82	0x3eb47df3	0.35252342
83	0xbdc57b75	-0.09642688
84	0x3dbe8efa	0.09304614
85	0xbc83b903	-0.016079431
86	0x3e331ed6	0.17492232
87	0x3e263a5f	0.16233204
88	0x3d505260	0.05085981
89	0x3cd986c2	0.026553515
90	0x3e422080	0.1895771
91	0x3d61d85f	0.05513799
92	0x3dc59380	0.09647274
93	0x3c0c8fc4	0.008579198
94	0x3d81718b	0.06320485
95	0xbd9fd47f	-0.07804202
96	0xbe29402d	-0.16528387
97	0xbc223252	-0.009899693
98	0x3e6cf792	0.23141316
99	0x3cbd1dc9	0.023085492
100	0xbd516d06	-0.051129363
101	0x3d9ba238	0.075993
102	0x3dfa8198	0.12231749
103	0x3e15a7e6	0.1461483
104	0x3e03fbca	0.12889019
105	0x3e2f8acb	0.17142789
106	0x3e3088ed	0.17239733
107	0x3e051167	0.1299492
108	0x3df8d863	0.121506475
109	0xbc3293a8	-0.010899462
110	0x3e12e999	0.14346923
111	0x3e702eae	0.23455307
112	0x3e21473c	0.1574983
113	0x3d90299f	0.070391886
114	0x3da06418	0.07831591
115	0x3e86985d	0.2628812
116	0xbd20127e	-0.039080136
117	0x3c3c825c	0.0115056895
118	0xbdd9ab87	-0.10628419
119	0xbd4c13c5	-0.04982354
120	0xbe7d15dd	-0.24715371
121	0xbd1a54ec	-0.037678644
122	0xbda52843	-0.0806432
123	0xbc8c38f7	-0.017117007
124	0x3e0d050e	0.1377146
125	0x3d19d65c	0.037557945
126	0xbce1e799	-0.027576255
127	0xbcbf1b06	-0.023328315
128	0x3e002997	0.12515865
129	0xbb196be8	-0.0023410264
130	0xbe4a7040	-0.19769382
131	0xbe45deb9	-0.19323243
132	0xbc8b8f06	-0.017035972
133	0x3d9263e1	0.07147957
134	0xbdd87fe5	-0.10571269
135	0x3e8e6bd3	0.27816638
136	0x3e1bbed8	0.1520952
137	0xbe900a36	-0.2813279
138	0x3cafe455	0.021471182
139	0xbcd6f7dc	-0.026241235
140	0x3de814e8	0.113321126
141	0x3dfdf230	0.12399709
142	0x3d5bdc92	0.05367715
143	0x3e197691	0.14986636
144	0x3d184de3	0.037183654
145	0xbd7681d8	-0.060182422
146	0x3d72af1e	0.059249036
147	0x3e7f3e6d	0.24926157
148	0x3c9c605a	0.019088913
149	0xbc7229cc	-0.014780473
150	0x3c95b641	0.018275382
151	0xbdd0556b	-0.10172542
152	0x3c19a44d	0.009377551
153	0x3c962f75	0.018333176
154	0xbcb43ddc	-0.022002153
155	0x3e7d7c7c	0.24754518
156	0x3c066fde	0.008205382
157	0x3df553f7	0.11978906
158	0x3e1f1e2f	0.15538858
159	0xbd3eae34	-0.04655285
160	0xbbe40955	-0.0069591203
161	0x3d7503d4	0.059818104
162	0x3cacf97a	0.021115053
163	0xbe1ef91c	-0.15524715
164	0xbd8012dc	-0.06253597
165	0x3d2b74d1	0.04185945
166	0xbddcbf44	-0.107786685
167	0x3d2e440d	0.042545367
168	0xbe4f4f58	-0.20245111
169	0xbe50624c	-0.20349997
170	0xbd5287a8	-0.051398903
171	0x3ba94252	0.0051653767
172	0xbe0883fa	-0.13331595
173	0x3da63db4	0.08117238
174	0x3daecab3	0.085347556
175	0xbe41c1f6	-0.18921646
176	0x3dc61d10	0.09673512
177	0xbd1639c0	-0.03667617
178	0x3dee8a3e	0.11647461
179	0xbdaaedc7	-0.08346134
180	0xbd1406b0	-0.03613919
181	0x3e23ab8b	0.15983407
182	0xbda6c269	-0.081425495
183	0x3e96c322	0.2944575
184	0xbc3046c4	-0.010759059
185	0x3dc07de5	0.093990125
186	0x3ddcbd38	0.10778278
187	0xbe326a1c	-0.1742329
188	0x3e03cd25	0.12871225
189	0x3da1bf7b	0.0789785
190	0xbd2d0236	-0.042238437
191	0x3ea2e975	0.3181874
192	0x3cc8b38d	0.024499679
193	0x3dd84a18	0.10561007
194	0x3e611d1b	0.21983759
195	0x3d0da17e	0.03457784
196	0x3d7e1815	0.062034685
197	0xbd323776	-0.043509923
198	0x3d3b4b35	0.04572602
199	0xbe3ad465	-0.18245085
200	0x3d8a2500	0.067453384
201	0x3ad22039	0.0016031332
202	0xbcc01bb3	-0.023450708
203	0x3d7c1e74	0.06155248
204	0xbdf48250	-0.11938918
205	0xbcfbefd6	-0.030754011
206	0xbda3f8cc	-0.080064386
207	0x3e486216	0.19568667
208	0x3e0b0805	0.13577278
209	0xbc98c8dd	-0.018650467
210	0xbcd584c4	-0.026064284
211	0xbd4aa17f	-0.04947042
212	0xbc853b1c	-0.016263537
213	0x39102aad	0.00013748808
214	0xbdb94dd6	-0.09048049
215	0x3e9c81f4	0.30567896
216	0x3df64fb6	0.120269224
217	0x3d9671ec	0.073459476
218	0x3dd9a73f	0.10627603
219	0xbd96a314	-0.073553234
220	0x3db417ab	0.08793577
221	0x3e212ca5	0.15739687
222	0x3dde667c	0.10859391
223	0x3e0d36c0	0.13790417
224	0x3e087dc7	0.1332923
225	0xbd6a3ebe	-0.057188742
226	0x3c07db09	0.008291968
227	0xbe257612	-0.16158321
228	0xbd96a408	-0.07355505
229	0x3e1adbca	0.15122905
230	0xbe2f1139	-0.17096414
231	0x3b88cbbe	0.0041746786
232	0x3b766213	0.0037595078
233	0xbddbfd2b	-0.10741647
234	0xbcbce3c2	-0.023057822
235	0x3dd1ab58	0.10237759
236	0x3dbb3d1f	0.09142517
237	0x3ded9397	0.11600416
238	0x3d8c5e7a	0.068539575
239	0xbe87f837	-0.2655656
240	0xbd1b0a12	-0.0378514
241	0x3cd33006	0.025779735
242	0xbdd65244	-0.1046491
243	0xbea52f66	-0.32262725
244	0xbd50cb95	-0.0509754
245	0x3e5adf3e	0.21374223
246	0x3d68bb69	0.056819353
247	0x3bef8f0e	0.0073107546
248	0xbcb60006	-0.022216808
249	0xbd4deaee	-0.050272875
250	0x3c408b9d	0.011752036
251	0xbdc34989	-0.0953551
252	0x3e807e83	0.2509652
253	0x3e87922c	0.26478708
254	0xba64c93f	-0.0008727498
255	0xbe786535	-0.24257357

sequential/conv2d/Conv2D f4 [8, 5, 5, 3]
0	0x3e6471b4	0.22309
1	0xbe3db166	-0.18524703
2	0xbe0a7488	-0.13521016
3	0x3df08701	0.117445
4	0xbd9aa97e	-0.07551859
5	0xbe081d9c	-0.13292545
6	0x3e760d50	0.24028516
7	0xbe4f3b4e	-0.20237467
8	0xbcbfb4c5	-0.023401627
9	0x3e7e7ffa	0.24853507
10	0xbe09be71	-0.13451554
11	0x3d8f9a28	0.07011825
12	0x3bd5c232	0.006523394
13	0x3de89a55	0.113575615
14	0x3d4de1e2	0.050264247
15	0x3e71cfbd	0.23614402
16	0xbe3b99ac	-0.1832034
17	0xbdb1da99	-0.08684272
18	0x3e5067e2	0.20352128
19	0xbe4cd927	-0.20004712
20	0xbe839b0c	-0.2570423
21	0x3e10b366	0.14130935
22	0xbe38aebb	-0.18035404
23	0xbeabb1ac	-0.3353399
24	0x3dc26f77	0.094939165
25	0xbe704a9f	-0.23465966
26	0xbe5b2690	-0.21401429
27	0xbd2097cd	-0.03920727
28	0xbe66800d	-0.22509785
29	0x3ca5a7b3	0.020221567
30	0x3e1f1e3c	0.15538877
31	0xbd913ae1	-0.070913084
32	0xbc516cca	-0.012782285
33	0x3c7901e8	0.015198208
34	0x3d63d122	0.055619366
35	0x3d7d8c81	0.061901573
36	0x3e5a9ebd	0.21349616
37	0xbd4c2a50	-0.04984504
38	0xbd12b3b4	-0.03581591
39	0x3e24fff2	0.1611326
40	0xbcf3d92a	-0.029766638
41	0xbdf15414	-0.11783615
42	0xbd6a0541	-0.057133917
43	0x3c8e1e09	0.017348306
44	0xbe0ce186	-0.13757905
45	0x3df0622a	0.11737473
46	0xbdcc0ba8	-0.09963161
47	0x3d144951	0.036202732
48	0x3e1043be	0.14088342
49	0x3d13a100	0.036042213
50	0xbcb98595	-0.022646705
51	0x3dcf07f9	0.101089425
52	0x3e421eb9	0.18957032
53	0x3d076cca	0.033062734
54	0x3cb9a87f	0.022663353
55	0x3d21d567	0.039510157
56	0x3dcc0b78	0.09963125
57	0x3d7bb319	0.061450098
58	0x3e0faf2b	0.14031665
59	0x3d8c7a81	0.06859303
60	0xbe04ba03	-0.12961583
61	0x3e2fe7a7	0.17178212
62	0xbce1e95d	-0.027577097
63	0x3ce9ccc5	0.028540025
64	0x3cbf9033	0.02338419
65	0xbdb3258b	-0.08747395
66	0xbdd39bae	-0.10332428
67	0xbb988d5e	-0.004655524
68	0x3c814228	0.015778616
69	0x3cd1d792	0.025615487
70	0x3e1ef1f0	0.1552198
71	0xb7714448	-1.4380617e-05
72	0xbda7fe0f	-0.08202755
73	0x3e17f8e7	0.14841042
74	0x3d1c26f5	0.03812309
75	0xbd8e6618	-0.069530666
76	0xbdac9877	-0.08427518
77	0xbda32a90	-0.079671025
78	0xbda872e8	-0.08225042
79	0xbd9c80f8	-0.07641786
80	0xbdf0a05c	-0.11749336
81	0xbe134752	-0.14382675
82	0xbce1e65d	-0.027575666
83	0xbe0027cd	-0.12515183
84	0xbdf3c65f	-0.11903071
85	0xbd92b826	-0.0716403
86	0x3d84ba2f	0.06480824
87	0x3cbc6164	0.022995658
88	0x3c7df757	0.015500865
89	0xbda2cda2	-0.079493776
90	0xbdb6db92	-0.089285985
91	0xbd6e1fd2	-0.058135815
92	0x3db7cd66	0.089747235
93	0x3dce69c1	0.10078765
94	0x3d2eac25	0.04264464
95	0x3e0500a0	0.1298852
96	0x3e0204a1	0.12697078
97	0xbdb0bef5	-0.08630172
98	0xbc5b7a1a	-0.0133958105
99	0x3e074f3c	0.1321382
100	0xbdb3223a	-0.087467626
101	0x3d64c52d	0.055852104
102	0x3e12050f	0.14259742
103	0xbb628cf1	-0.003456887
104	0xbe17b784	-0.148161
105	0xbd855c5f	-0.06511759
106	0xbe0dba9f	-0.13840722
107	0x3d009227	0.03138938
108	0xbdbcdb2c	-0.09221491
109	0x3e095948	0.13412964
110	0x3e064962	0.13113931
111	0xbde68b89	-0.11257083
112	0xbe0bf35a	-0.1366705
113	0x3c783dec	0.015151482
114	0x3abdad61	0.0014471227
115	0xbdc5ecb5	-0.09664289
116	0x3d0566de	0.032568805
117	0xbdaa2cb6	-0.08309309
118	0xbde5d620	-0.11222482
119	0xbd638e50	-0.05555564
120	0x3b032ecb	0.0020016904
121	0xbdb0bf24	-0.08630207
122	0xbe19f12c	-0.15033406
123	0xbe06f51a	-0.13179436
124	0x3d98d371	0.07462204
125	0xbcedc446	-0.029024255
126	0x3dcc52ac	0.09976706
127	0xbd0922cc	-0.03348045
128	0x3dfffbb8	0.124991834
129	0x3c567340	0.013089001
130	0x3c84f094	0.016227998
131	0xbd9bc409	-0.0760575
132	0xbd8cb314	-0.06870094
133	0x3d5d47d6	0.054023586
134	0x3c15140b	0.009099017
135	0x3e0b7435	0.13618548
136	0x3d15294f	0.036416348
137	0xbc9c1002	-0.019050602
138	0xbdddb5ce	-0.10825692
139	0x3cfe8117	0.031067414
140	0x3dc6fc85	0.09716133
141	0x3e076fd0	0.13226247
142	0x3dc20bca	0.09474905
143	0x3df7c64b	0.12098368
144	0xbe06da89	-0.13169302
145	0x3d9108db	0.07081767
146	0x3dcdb369	0.100439854
147	0xbd79c69e	-0.06098043
148	0xba3f73fa	-0.00073033536
149	0x3d3263e5	0.043552298
150	0xbde23b1d	-0.11046431
151	0x3dd8d2b1	0.10587061
152	0x3d867eaa	0.06567128
153	0xbdbb2233	-0.09137382
154	0x3d5ccb45	0.05390479
155	0xbdd4e047	-0.1039434
156	0x3db2c186	0.08728318
157	0xbdeee52e	-0.11664806
158	0xbe0ad6c9	-0.13558497
159	0x3e02c304	0.12769705
160	0x3dde0aaa	0.10841878
161	0xbda3f053	-0.080048226
162	0x3dda7fb7	0.10668891
163	0xbc60724a	-0.013699124
164	0xbdd84285	-0.105595626
165	0x3a15c0bb	0.0005712618
166	0x3d11b0ab	0.035568874
167	0xbd06ba5a	-0.032892562
168	0x3d450f17	0.048110094
169	0x3d658ddf	0.056043502
170	0x3c3a1a96	0.011358878
171	0x3d11df53	0.03561337
172	0x3dbce174	0.09222689
173	0xbe1bf520	-0.15230227
174	0xbdb9df4b	-0.09075793
175	0xbe0b5663	-0.13607173
176	0x3dc33cb5	0.09533063
177	0x3df48fe3	0.11941507
178	0x3cfedf2b	0.031112274
179	0xbcfbfd6c	-0.03076049
180	0x3d91faa8	0.07127887
181	0xbdd3f385	-0.10349182
182	0x3e0225d2	0.1270974
183	0xbc08e07f	-0.008354305
184	0x3df35bfe	0.118827805
185	0x3d2c209c	0.042023286
186	0x3e0d32a2	0.13788846
187	0x3d946351	0.072455056
188	0x3d85c9ca	0.06532629
189	0x3d0d6b87	0.034526374
190	0xbd78d1a9	-0.060746823
191	0x3e062be8	0.13102686
192	0xbdab2937	-0.083574705
193	0x3df08a53	0.11745133
194	0x3d94b09c	0.07260248
195	0xbdcd6d7f	-0.1003065
196	0xbcd0b604	-0.025477417
197	0xbd81e13c	-0.06341788
198	0x3dbbc4de	0.09168409
199	0x3c4ec2ec	0.012619715
200	0x3d9713db	0.07376834
201	0x3d780cc5	0.060559053
202	0x3df8cb8c	0.121481985
203	0x3b0b738c	0.0021278588
204	0x3dd4bb1d	0.103872515
205	0x3d9f37d1	0.07774318
206	0xbe0ad5e1	-0.13558151
207	0x3e1146c8	0.14187157
208	0xbd582f5e	-0.052779548
209	0xbc9dc48b	-0.019258758
210	0x3d684e5b	0.05671535
211	0xbda6bd27	-0.08141547
212	0xbcb2fd01	-0.021849157
213	0x3c106ff9	0.008815759
214	0x3dfcf8b3	0.12352123
215	0xbe02da0d	-0.12778492
216	0x3d929fbc	0.07159373
217	0xbe0803c3	-0.13282685
218	0xbd2ecb8d	-0.04267459
219	0x3dd5b238	0.10434383
220	0x3ddc84be	0.10767506
221	0xbd5dfdda	-0.05419717
222	0xbd874fbb	-0.06607004
223	0xbdaeabfd	-0.08528898
224	0xbe05e3e2	-0.13075212
225	0x3d4377fb	0.047721844
226	0xbdaa2229	-0.08307297
227	0xbd992f07	-0.07479673
228	0xbd9c46c4	-0.07630685
229	0x3e06d908	0.13168728
230	0xbd56f4b9	-0.05247948
231	0xbd2c54d0	-0.04207307
232	0x3db1ccf1	0.086816676
233	0xbd92e907	-0.07173353
234	0xbd58f751	-0.052970234
235	0xbd5b52de	-0.053545825
236	0x3d472ca9	0.048626576
237	0x3deb5fd5	0.11492888
238	0xbda7d1e4	-0.0819433
239	0xbd392989	-0.045205627
240	0xbd13a812	-0.036048956
241	0x3e0caa60	0.13736868
242	0xbe2685c3	-0.16261964
243	0xbd4bf342	-0.049792536
244	0x3e483b42	0.19553855
245	0xbcfb3d03	-0.030668741
246	0x3dafacb5	0.08577863
247	0x3e2603f7	0.1621245
248	0x3d349307	0.04408553
249	0x3e3b57de	0.18295237
250	0x3e4d633d	0.20057388
251	0x3cfaa826	0.030597758
252	0xbc2d8e50	-0.010593012
253	0x3e10b52e	0.14131615
254	0xbd97daa1	-0.07414747
255	0xbc0afc6e	-0.0084830355

dense_1/bias f4 [128]
0	0x3f03d8eb	0.51502866
1	0x3f081aeb	0.53166074
2	0x3f126275	0.57181484
3	0x3ebe8a55	0.37214914
4	0x3f1df0a6	0.61695325
5	0x3e89dd62	0.26926714
6	0x3edee5af	0.4353461
7	0x3f025ad1	0.50919825
8	0x3eefda11	0.4684606
9	0x3ee76d17	0.45200416
10	0x3f20a5f4	0.62753224
11	0x3e8d3785	0.2758142
12	0x3f0a4756	0.540151
13	0x3f006332	0.5015136
14	0x3f04a64d	0.51816255
15	0x3ee85db2	0.45383984
16	0x3edfbda5	0.43699375
17	0x3eb17715	0.34661165
18	0x3ee038c9	0.43793324
19	0x3eddd684	0.43327725
20	0x3efd7b70	0.49508238
21	0x3ee10898	0.4395187
22	0x3e9cde83	0.30638513
23	0x3ea46e07	0.32115194
24	0x3eef550c	0.46744573
25	0x3f0c548e	0.5481652
26	0x3f0d7305	0.5525363
27	0x3ebd3e64	0.36961663
28	0x3eaa297f	0.33234784
29	0x3f0dca81	0.5538712
30	0x3ee30c1f	0.44345185
31	0x3ecdb29e	0.40175337
32	0x3ecbfe25	0.39842334
33	0x3ef47439	0.4774492
34	0x3e514909	0.20438017
35	0x3f02c80a	0.51086485
36	0x3ee483e0	0.44631863
37	0x3f179cc7	0.592236
38	0x3f1dbb50	0.6161394
39	0x3f1d198e	0.6136712
40	0x3edbada4	0.42905915
41	0x3ea5da4d	0.32393113
42	0x3eee1a51	0.46504453
43	0x3eec10e7	0.46106645
44	0x3e282961	0.16422035
45	0x3ecb762e	0.397386
46	0x3ed6a478	0.41922355
47	0x3deb5f77	0.11492818
48	0x3efbe080	0.49194717
49	0x3f32f3a1	0.69903
50	0x3e86c16c	0.26319444
51	0x3ebe7762	0.37200457
52	0x3e72534d	0.23664589
53	0x3ef56d2a	0.47934848
54	0x3ee7fb90	0.45309114
55	0x3f0455b4	0.5169327
56	0x3ec1cf4a	0.37853462
57	0x3ee28b9b	0.44247136
58	0x3f15f3bf	0.5857505
59	0x3f07461c	0.52841353
60	0x3ef37c46	0.4755575
61	0x3eac2465	0.33621517
62	0x3f0af16b	0.54274625
63	0x3e9923fc	0.29910266
64	0x3f13347c	0.5750196
65	0x3f0dea04	0.55435205
66	0x3efe6020	0.49682713
67	0x3ecdef3f	0.40221593
68	0x3f181309	0.59404045
69	0x3f22619d	0.63430196
70	0x3f0922e1	0.53568846
71	0x3f078945	0.5294383
72	0x3ed63067	0.41833803
73	0x3ea46b20	0.3211298
74	0x3ef07b8b	0.46969256
75	0x3e945fb8	0.28979278
76	0x3f3402c1	0.703167
77	0x3dafe085	0.085877456
78	0x3edb2304	0.42800152
79	0x3e80af81	0.251339
80	0x3f1dd140	0.61647415
81	0x3edb21d7	0.42799255
82	0x3f026f80	0.50951385
83	0x3efcca9a	0.49373323
84	0x3f00b02d	0.5026882
85	0x3e9ce144	0.30640614
86	0x3f2b8de9	0.6701341
87	0x3ec06db3	0.37583694
88	0x3edb6842	0.4285298
89	0x3ee37045	0.44421592
90	0x3eff3318	0.4984367
91	0x3ea7f722	0.32805735
92	0x3f192a74	0.59830403
93	0x3e9ef978	0.31049705
94	0x3ee7fbe4	0.45309365
95	0x3eecea3d	0.4627246
96	0x3f16fff5	0.5898431
97	0x3e72adef	0.23699163
98	0x3ee36a48	0.44417024
99	0x3ec9eed9	0.3944004
100	0x3f01d6a8	0.50718164
101	0x3f115fed	0.56786996
102	0x3eb9e5f6	0.3630826
103	0x3ed2af75	0.41149488
104	0x3e9fe8ce	0.31232303
105	0x3f160710	0.58604527
106	0x3eeb3860	0.45941448
107	0x3ee14485	0.4399759
108	0x3eec67f7	0.4617307
109	0x3f0eb871	0.55750185
110	0x3eed29a4	0.46320832
111	0x3eb0c2d7	0.3452365
112	0x3ede457f	0.43412396
113	0x3ef7ce75	0.48399702
114	0x3e8773ac	0.26455438
115	0x3ee240f6	0.44190186
116	0x3f0d5f5f	0.5522365
117	0x3ee72ff8	0.45153785
118	0x3ece764c	0.40324628
119	0x3ef50364	0.4785415
120	0x3f1611a9	0.586207
121	0x3f1b596d	0.6068333
122	0x3efb7634	0.4911362
123	0x3ed8a1e9	0.42311028
124	0x3ef64d48	0.48105836
125	0x3f03bb71	0.5145789
126	0x3eb7c3ba	0.35891515
127	0x3f013e35	0.50485545

dense/bias f4 [128]
0	0x3e9e05dc	0.30863845
1	0xbda87567	-0.08225518
2	0xbd796715	-0.060889322
3	0x3dd24226	0.10266523
4	0x3e1292cb	0.1431381
5	0x3deb3395	0.11484448
6	0x3bf75029	0.0075473976
7	0x3e54d707	0.20785151
8	0x3cad9e0d	0.021193529
9	0x3da304ac	0.079598755
10	0x3d995c81	0.07488347
11	0xbd71be87	-0.05901959
12	0xbc04967c	-0.008092519
13	0x3df0c054	0.11755434
14	0x3d9504ea	0.07276328
15	0x3db2bb53	0.087271355
16	0xbcd049ed	-0.025425876
17	0x3d1768b4	0.036965087
18	0x3e72e445	0.2371989
19	0x3daeef70	0.08541763
20	0x3d0dfa01	0.03466225
21	0xbd29a77d	-0.041419495
22	0x3dad8e77	0.08474439
23	0x3d1f438f	0.03888279
24	0xbd71eba6	-0.059062622
25	0x3c74aae1	0.014933319
26	0x3da48f79	0.08035178
27	0x3e5f1148	0.21783936
28	0x3cd1d7aa	0.025615532
29	0x3d2d552b	0.04231755
30	0x3dc58b2d	0.09645686
31	0x3eac58b4	0.33661425
32	0x3cc5f060	0.024162471
33	0xbca17458	-0.019708797
34	0x3e0e814b	0.13916509
35	0x3e29dc11	0.16587855
36	0xbdad1ca2	-0.08452727
37	0x3e0cf52c	0.137654
38	0x3d1034fc	0.03520678
39	0x3e11c822	0.14236501
40	0xbd5588af	-0.052132305
41	0x3d6ccac6	0.057810567
42	0xbe01ac65	-0.1266342
43	0x3c058b11	0.008150832
44	0x3e0bb844	0.1364451
45	0x3e519cca	0.20469967
46	0x3dc971bc	0.09836146
47	0x3dae7e56	0.085201904
48	0x3df3bc82	0.119011894
49	0x3da3ed3b	0.080042325
50	0x3dd095b8	0.101848066
51	0x3d778159	0.06042609
52	0xbc0a0267	-0.008423424
53	0x3dbc97ee	0.09208666
54	0x3e6129bb	0.21988575
55	0xbc973a38	-0.018460378
56	0x3e246f37	0.1605805
57	0x3e3c3bd2	0.18382195
58	0x3dca8b7c	0.09889886
59	0x3deb38ba	0.11485429
60	0xbc56211a	-0.013069415
61	0x3dfeb2ae	0.12436424
62	0x3d6c4c75	0.057690103
63	0x3de6939c	0.11258623
64	0x3ba5c3cf	0.0050587426
65	0x3d821613	0.063518666
66	0x3e0231d4	0.1271432
67	0x3d2cf4e2	0.042225726
68	0x3df19455	0.1179587
69	0x3dd8bbbf	0.10582685
70	0xbbe7ffff	-0.0070800777
71	0x3e08ceb5	0.13360102
72	0xbd43597d	-0.047692765
73	0x3e73aab3	0.23795585
74	0x3d858c18	0.065208614
75	0x3d763728	0.060111195
76	0x3db3d7ed	0.08781419
77	0x3cf01312	0.029305968
78	0x3e14511b	0.14484064
79	0x3d2c1f52	0.042022057
80	0x3e3724ab	0.17885081
81	0x3e2220eb	0.1583287
82	0xbd360ee8	-0.04444781
83	0x3dbbb111	0.09164632
84	0xbc5adfcd	-0.013359022
85	0x3e5a54c8	0.21321404
86	0x3d2b942b	0.04188935
87	0x3d904e40	0.07046175
88	0x3d35bfd7	0.044372406
89	0x3e24d47f	0.16096686
90	0x3d4767b2	0.048682876
91	0x3e0e2edd	0.13885064
92	0x3dcb0508	0.09913069
93	0x38a55e03	7.885324e-05
94	0x3dcdf8d5	0.100572266
95	0x3e62060a	0.22072616
96	0x3df024dc	0.1172578
97	0x3d0cbd99	0.034360502
98	0x3e1275b3	0.14302711
99	0x3e2285f8	0.15871418
100	0x3d79de9a	0.061003305
101	0xbc317fe4	-0.010833714
102	0x3d09eaa6	0.033671044
103	0x3daf7f4f	0.08569204
104	0x3c02a449	0.007973739
105	0x3ea4de58	0.32200885
106	0x3dbd9f76	0.092589304
107	0x3d3660c8	0.04452589
108	0xbdbf1480	-0.09330082
109	0x3e76d4ba	0.24104586
110	0x3d7093e4	0.05873479
111	0x3d280a36	0.041025363
112	0x3df6ab7e	0.12044428
113	0x3e126cbb	0.1429929
114	0x3e0c5220	0.13703203
115	0x3e056168	0.13025439
116	0x3e8451b9	0.258436
117	0x3d392393	0.04519994
118	0x3e06efab	0.13177364
119	0xbdbe7492	-0.09299578
120	0x3e30ca73	0.17264728
121	0x3e27d610	0.16390252
122	0x3e49a172	0.19690493
123	0x3d299cc1	0.041409258
124	0x3d4e467c	0.050360188
125	0x3d57ec96	0.05271586
126	0x3dc4af80	0.096037865
127	0x3e409f8d	0.18810864

sequential/batch_normalization_5/batchnorm/mul f4 [128]
0	0x3e3ca43a	0.18422022
1	0x41ef53be	29.91589
2	0x41ef24cf	29.892973
3	0x3e75e3e9	0.24012722
4	0x3e5b9253	0.21442537
5	0x3e624005	0.22094734
6	0x3ed07c97	0.40720055
7	0x3e4f28ac	0.20230359
8	0x3eb6c89c	0.35699928
9	0x3e8364f8	0.2566297
10	0x3ea170fc	0.31531513
11	0x41ee3726	29.776928
12	0x3e90146e	0.28140587
13	0x3e8b3603	0.27189645
14	0x3e8790fe	0.26477808
15	0x3ea54ae2	0.32283694
16	0x3ed9b7b5	0.4252297
17	0x3e904d7a	0.2818411
18	0x3e74457c	0.23854631
19	0x3eb45688	0.35222268
20	0x3e71addc	0.23601478
21	0x3edd98be	0.43280596
22	0x3ec7b9cc	0.3900894
23	0x3e6544b1	0.22389485
24	0x41f1a6c7	30.206434
25	0x3e832543	0.25614366
26	0x3e7ccb23	0.24686866
27	0x3e3e8680	0.18605995
28	0x3e904f9e	0.28185743
29	0x3e59704e	0.21234247
30	0x3e8a7d00	0.27048492
31	0x3e80d959	0.25165823
32	0x3e727704	0.23678213
33	0x3ee56446	0.44803065
34	0x3e4bf5a1	0.19917919
35	0x3e8430c6	0.2581846
36	0x41e70e65	28.882029
37	0x3e902df8	0.2816007
38	0x3e7ac9a1	0.24490978
39	0x3e81e4fa	0.25370008
40	0x3e725d86	0.23668489
41	0x3eb27056	0.3485133
42	0x3f095aa0	0.5365391
43	0x3e9f6866	0.31134337
44	0x3e422ad0	0.18961644
45	0x3e7f9220	0.24958086
46	0x3ea9b772	0.3314777
47	0x3e79188a	0.24325767
48	0x3e3e32e0	0.18574095
49	0x3e6329e0	0.22183943
50	0x3ea0c217	0.3139808
51	0x3e6d7156	0.23187765
52	0x3e85317a	0.2601431
53	0x3e96c2f0	0.294456
54	0x3e4fda11	0.2029803
55	0x3e8cd8fa	0.2750929
56	0x3e3734fc	0.17891306
57	0x3e7e05a9	0.24806847
58	0x3e84f316	0.2596671
59	0x3e912f02	0.28356177
60	0x3e94d622	0.2906962
61	0x3e3830dc	0.17987388
62	0x3e62dcf2	0.22154596
63	0x3e4a5cda	0.19761983
64	0x3eb67507	0.3563616
65	0x3ebb08b8	0.3653009
66	0x3e7477a9	0.23873772
67	0x3e815abc	0.25264537
68	0x3e3f2fcd	0.18670578
69	0x3e4085e6	0.18801078
70	0x3ecf8226	0.40528983
71	0x3e562442	0.20912269
72	0x41e50861	28.629091
73	0x3e500d3c	0.20317549
74	0x3e8f3da7	0.27976725
75	0x3e94b99e	0.29047865
76	0x3e754aa9	0.23954262
77	0x3e545546	0.20735654
78	0x3e601610	0.21883416
79	0x3e9eeb07	0.31038687
80	0x3e497109	0.19672026
81	0x3e5e8352	0.21729782
82	0x3ee0eb58	0.43929553
83	0x3e7df1d9	0.24799289
84	0x3e7ff992	0.24997547
85	0x3e7bc02d	0.24585028
86	0x3e7846ea	0.24245802
87	0x3e803b75	0.25045362
88	0x3e8c838e	0.27444118
89	0x3e60fbab	0.21971004
90	0x3e9a4c48	0.30136323
91	0x3e74d841	0.2391062
92	0x3e71d828	0.23617613
93	0x3e81b1f1	0.2533107
94	0x3e9f2639	0.3108385
95	0x3e67e8e6	0.22647437
96	0x3e4b0724	0.19826943
97	0x3e9fd2f7	0.3121564
98	0x3e6b093b	0.2295274
99	0x3e8506fd	0.25981894
100	0x3e7da047	0.24768172
101	0x3e4e14e3	0.20125155
102	0x3e9c6b2c	0.30550516
103	0x3e4962d7	0.1966661
104	0x3ed9915b	0.4249371
105	0x3e5432fa	0.20722571
106	0x3e69c399	0.22828521
107	0x3e8b90d5	0.27258936
108	0x41f47b14	30.560097
109	0x3e4f082e	0.20217964
110	0x3e7f18c8	0.24911797
111	0x3e60ad61	0.21941139
112	0x3e62770f	0.2211573
113	0x3e539b2d	0.20664664
114	0x3e830856	0.25592297
115	0x3e8084f2	0.2510143
116	0x3e429fda	0.19006291
117	0x3e7f677d	0.24941821
118	0x3e1d10ca	0.15338436
119	0x41ee700f	29.804716
120	0x3e5a1cb4	0.21300012
121	0x3e7a4349	0.2443973
122	0x3e591bef	0.21202062
123	0x3e763806	0.24044809
124	0x3e8977ce	0.26849216
125	0x3e69a912	0.22818401
126	0x3e84d864	0.25946343
127	0x3e843942	0.25824934
