app/src/main/ml/model43.tflite (tflite, 124680 bytes, 29 tensors)

sequential/dense_2/MatMul;sequential/dense_2/BiasAdd f4 [43]
000000 64 57 49 40 83 d9 b0 40 c7 83 ab 40 01 39 b1 40
       3.145959 5.5265517 5.359836 5.5382085
000010 1b 4e 94 40 8d a0 c6 40 61 e4 af 40 c1 80 af 40
       4.6345344 6.2070985 5.4966283 5.484467
000020 01 e2 a4 40 6a fe 61 40 e2 6e 58 40 9c 67 9e 40
       5.1525884 3.5311532 3.3817677 4.9501476
000030 47 68 ae 40 ab 04 f8 40 cd ab 93 3f 86 b8 2b 40
       5.450229 7.75057 1.1536804 2.6831374
000040 0a 54 75 3f 4a 19 ae 3f 20 5f e0 3f d8 cf 5a 40
       0.9583136 1.3601468 1.752903 3.4189358
000050 55 45 bd 40 ee 09 84 40 61 ed 43 bf 4a 80 97 40
       5.9147134 4.126212 -0.76534086 4.7344103
000060 ef 64 0a 3f 88 31 28 40 27 0c 92 3f 95 70 c8 3f
       0.5406026 2.6280231 1.1409959 1.5659357
000070 45 09 87 40 e8 1d 2a 40 3b ef ac 40 29 56 5c 40
       4.2198815 2.6580753 5.404203 3.4427588
000080 cf 01 41 40 e3 e7 2a 40 17 06 40 40 3a cb 6a 40
       3.0157354 2.6704032 3.0003717 3.668654
000090 aa 45 8b 40 89 ea 33 3f c1 aa 99 40 b0 1f 50 3c
       4.352254 0.7027975 4.802094 0.012702867
0000a0 e0 ad 76 40 8f 0d 91 40 db bf a2 40
       3.8543625 4.532905 5.08592

sequential/conv2d_4/BiasAdd;sequential/conv2d_3/Conv2D;sequential/conv2d_4/Conv2D;conv2d_4/bias f4 [32]
000000 a7 12 3e be ab d3 00 bd 86 30 f0 3d 93 fc 50 be
       -0.18561803 -0.031451862 0.11728005 -0.2040885
000010 e6 f8 05 be 06 fd 96 bd dd 67 20 be 69 18 e3 bd
       -0.13083228 -0.07372479 -0.1566462 -0.1108864
000020 23 4b 20 bd 3c 44 33 bd 3d 88 82 be 1c 05 5d 3d
       -0.039134156 -0.043766245 -0.25494567 0.05395995
000030 91 0b 9b be 81 da 37 bd c4 e8 04 be 69 6e 8c bc
       -0.30282262 -0.044886116 -0.12979418 -0.017142491
000040 de 35 b5 be 98 95 81 be 66 8b 81 be 14 7f eb be
       -0.3539266 -0.25309443 -0.25301665 -0.4599539
000050 dd 6b e1 bd 7f 38 bc be c5 25 3f be 81 07 17 be
       -0.110069014 -0.36761853 -0.18666752 -0.14748956
000060 1a 48 68 be 0c d6 2b be a9 27 70 be 69 93 3a be
       -0.22683755 -0.16780871 -0.23452629 -0.18220295
000070 3c 1a 52 be 82 e7 7f be 6d d6 a8 bd c0 70 b0 be
       -0.2051782 -0.24990657 -0.082440235 -0.3446102

sequential/conv2d_3/BiasAdd;sequential/conv2d_3/Conv2D;conv2d_3/bias f4 [32]
000000 d9 ec a9 be 77 93 81 bc 34 bd a5 be 08 29 08 bd
       -0.33188513 -0.015817387 -0.32370913 -0.033242255
000010 87 84 9f be 92 bc 2c be 9c 37 a5 bc ca c9 77 3c
       -0.31155798 -0.16868809 -0.020168118 0.015123794
000020 84 c7 80 bd 40 98 ad 3d c8 93 3a 3e 78 01 09 bd
       -0.062880546 0.08476305 0.18220437 -0.033448666
000030 47 39 ab 3c a6 3d 8f bd d7 49 ca bd 76 94 db bd
       0.020901335 -0.069941804 -0.09877365 -0.10721676
000040 6b af d4 be 4f 14 92 be ed 22 ba bd 34 96 f1 bd
       -0.41540083 -0.2853112 -0.09088693 -0.11796227
000050 af 21 35 be e0 04 dc 39 85 1a a1 3d 45 4f 1c bc
       -0.1768863 0.00041965302 0.07866386 -0.009540384
000060 b2 8f 4c be 01 a5 ed bd f2 e7 e7 3c f6 b9 8d bd
       -0.1997669 -0.116037376 0.028308842 -0.06920235
000070 e1 80 84 be 20 1a e5 bd 55 37 0a be 9e d0 0f bd
       -0.25879577 -0.111866236 -0.1349767 -0.035111062

sequential/conv2d_2/BiasAdd;sequential/conv2d_1/Conv2D;sequential/conv2d_2/Conv2D;conv2d_2/bias f4 [16]
000000 be 8f 8a bc bf 76 b2 3b ed f1 54 be 19 c1 d5 3c
       -0.016914245 0.0054462845 -0.20795412 0.026093053
000010 bb 32 d2 3b 61 6e 35 3d 9f 2d b2 bd b3 91 be bd
       0.006414739 0.04429472 -0.08700108 -0.09305134
000020 00 0c 88 bd 55 e8 59 3d ba 07 a1 bd 6f 36 44 be
       -0.06642914 0.053200085 -0.07862802 -0.1916139
000030 ff 91 a8 bd 0a e6 fc bd de cc 00 be d9 ce 27 be
       -0.082309715 -0.12348564 -0.1257815 -0.163875

sequential/conv2d_1/BiasAdd;sequential/conv2d_1/Conv2D;conv2d_1/bias f4 [16]
000000 03 0d 1b 3d 18 08 99 3d f2 50 86 bd 93 a8 97 bc
       0.037854206 0.07472247 -0.06558408 -0.018513
000010 71 c5 4d 3d 10 75 4d bc f8 e3 d0 bc c3 71 aa 3c
       0.050237123 -0.012540117 -0.025499329 0.020806199
000020 f1 fd 14 3d fc ab 0d bd b1 60 90 bb 81 c0 cf 3c
       0.03637499 -0.034587845 -0.0044060578 0.025360348
000030 cf 10 7a bb 3d c3 28 bd cc 87 b1 bb a3 92 06 3d
       -0.0038156991 -0.04120182 -0.0054177996 0.032854687

sequential/conv2d/BiasAdd;sequential/conv2d/Conv2D;conv2d/bias f4 [8]
000000 36 b9 44 3c 68 54 1e 3d 0c b5 10 3e 20 d4 c4 bb
       0.012007048 0.038654715 0.14131564 -0.0060067326
000010 1b eb fb bb 6c ae c4 bb 3f d1 08 bc 6e 2e 20 3d
       -0.007687939 -0.006002238 -0.008350669 0.03910678

sequential/conv2d_4/Conv2D i1 [32, 3, 3, 32]
000000 08 3f f1 b6 d0 26 fe c8 17 08 de 42 0a ec 14 ff
       8 63 -15 -74 -48 38 -2 -56 23 8 -34 66 10 -20 20 -1
000010 0e 02 3e f1 11 26 25 3c f0 df d7 cc c8 3b 01 0d
       14 2 62 -15 17 38 37 60 -16 -33 -41 -52 -56 59 1 13
000020 1f e0 22 0b 30 08 26 ff 01 f3 09 09 12 e1 17 00
       31 -32 34 11 48 8 38 -1 1 -13 9 9 18 -31 23 0
000030 31 fc 34 fb 16 e9 1c 05 dc d7 c2 f7 45 ee f5 2c
       49 -4 52 -5 22 -23 28 5 -36 -41 -62 -9 69 -18 -11 44
000040 54 fc 21 0c b5 23 dc 17 db 1c fd d7 d4 f6 1c b9
       84 -4 33 12 -75 35 -36 23 -37 28 -3 -41 -44 -10 28 -71
000050 eb e8 17 db 1f 20 0f 04 c8 15 bd 03 10 eb ea ff
       -21 -24 23 -37 31 32 15 4 -56 21 -67 3 16 -21 -22 -1
000060 20 11 c9 0e 18 04 fd dd 15 df 15 b5 ec f1 08 30
       32 17 -55 14 24 4 -3 -35 21 -33 21 -75 -20 -15 8 48
000070 1c 16 4a a9 3f 4a 12 fe e2 bb 12 ae f1 06 5c 07
       28 22 74 -87 63 74 18 -2 -30 -69 18 -82 -15 6 92 7
000080 18 0d d2 f3 e4 ce e1 d9 0b 13 32 cf 02 bf f5 ed
       24 13 -46 -13 -28 -50 -31 -39 11 19 50 -49 2 -65 -11 -19
000090 50 09 48 16 4c cf 0e f3 c8 eb ea e6 d3 3d 04 1e
       80 9 72 22 76 -49 14 -13 -56 -21 -22 -26 -45 61 4 30
0000a0 03 ce 03 1c 1f b1 ea fb fe 12 f8 d8 17 ec 09 bd
       3 -50 3 28 31 -79 -22 -5 -2 18 -8 -40 23 -20 9 -67
0000b0 63 ea 04 f4 2c 1e b5 02 eb 33 15 bb 1e ca ea 0f
       99 -22 4 -12 44 30 -75 2 -21 51 21 -69 30 -54 -22 15
0000c0 e4 f9 d8 16 09 49 47 bb ea d0 b3 07 d5 39 14 46
       -28 -7 -40 22 9 73 71 -69 -22 -48 -77 7 -43 57 20 70
0000d0 13 a6 64 a7 1a fa e9 b7 c7 fc ee ba 11 81 67 f5
       19 -90 100 -89 26 -6 -23 -73 -57 -4 -18 -70 17 -127 103 -11
0000e0 04 21 01 ed c7 df 37 a6 f8 d6 d5 51 18 ea 31 21
       4 33 1 -19 -57 -33 55 -90 -8 -42 -43 81 24 -22 49 33
0000f0 46 db 3a cb 05 f4 2c 0c 11 e6 eb 20 eb ad 1c dd
       70 -37 58 -53 5 -12 44 12 17 -26 -21 32 -21 -83 28 -35

sequential/conv2d_3/Conv2D i1 [32, 3, 3, 16]
000000 23 33 26 f5 ae 05 db 0f e6 32 08 ee f2 28 07 f1
       35 51 38 -11 -82 5 -37 15 -26 50 8 -18 -14 40 7 -15
000010 0f e0 f5 06 ab d3 fe 17 f3 f8 d9 15 fb 18 e2 0c
       15 -32 -11 6 -85 -45 -2 23 -13 -8 -39 21 -5 24 -30 12
000020 20 1f c3 1f 0b e6 2f 2c 27 b8 f1 11 1d fd e5 19
       32 31 -61 31 11 -26 47 44 39 -72 -15 17 29 -3 -27 25
000030 d4 cc 36 8e 03 f5 b6 ac cc ff c4 b6 ec 2f f9 d0
       -44 -52 54 -114 3 -11 -74 -84 -52 -1 -60 -74 -20 47 -7 -48
000040 f4 08 f2 f0 f9 dc 18 ea fa ed 81 de 0a f4 fb 18
       -12 8 -14 -16 -7 -36 24 -22 -6 -19 -127 -34 10 -12 -5 24
000050 1b 1a cb 2b aa dc 4b 1e 13 0e c9 0e 29 b9 05 ee
       27 26 -53 43 -86 -36 75 30 19 14 -55 14 41 -71 5 -18
000060 c8 c7 38 c3 0d 12 0c 0e 0b e5 d2 dc bd f5 44 9c
       -56 -57 56 -61 13 18 12 14 11 -27 -46 -36 -67 -11 68 -100
000070 ed f1 1f 3b 03 05 06 d5 08 1c df ec 0a 98 10 d2
       -19 -15 31 59 3 5 6 -43 8 28 -33 -20 10 -104 16 -46
000080 ce 06 a6 2e c6 f6 e9 0e 2a 42 d4 1e eb 8f f5 ec
       -50 6 -90 46 -58 -10 -23 14 42 66 -44 30 -21 -113 -11 -20
000090 a0 d9 55 fa e5 1c ea f1 f9 13 dd bf 10 e1 2d df
       -96 -39 85 -6 -27 28 -22 -15 -7 19 -35 -65 16 -31 45 -33
0000a0 bc 24 27 09 d7 10 22 07 1a d9 a2 09 ff 81 35 f8
       -68 36 39 9 -41 16 34 7 26 -39 -94 9 -1 -127 53 -8
0000b0 9a 00 15 3b ed fd ed 16 24 f6 db 5a 4a 8f 4b fc
       -102 0 21 59 -19 -3 -19 22 36 -10 -37 90 74 -113 75 -4
0000c0 33 fc da f8 19 06 ed 2a 1a e9 09 ea eb e7 fd ec
       51 -4 -38 -8 25 6 -19 42 26 -23 9 -22 -21 -25 -3 -20
0000d0 05 26 e1 df fa 04 0e 0d 10 cc 11 ea a3 e2 f9 f3
       5 38 -31 -33 -6 4 14 13 16 -52 17 -22 -93 -30 -7 -13
0000e0 27 0a ec 14 17 28 f8 11 1c 09 eb 1b f1 fb eb 10
       39 10 -20 20 23 40 -8 17 28 9 -21 27 -15 -5 -21 16
0000f0 1a e4 d7 db 13 18 e7 05 df 13 21 f6 05 28 eb 10
       26 -28 -41 -37 19 24 -25 5 -33 19 33 -10 5 40 -21 16

sequential/conv2d_2/Conv2D i1 [16, 3, 3, 16]
000000 11 19 2a cb 15 20 f7 26 59 25 22 f3 f6 d4 1c f6
       17 25 42 -53 21 32 -9 38 89 37 34 -13 -10 -44 28 -10
000010 fb 21 21 eb e3 40 52 04 08 1e 3a da 25 e5 19 40
       -5 33 33 -21 -29 64 82 4 8 30 58 -38 37 -27 25 64
000020 c0 e2 35 d6 1a 12 02 14 15 f8 42 f3 31 0d 2a 08
       -64 -30 53 -42 26 18 2 20 21 -8 66 -13 49 13 42 8
000030 0f 4f 26 02 f7 ea ec 03 19 0d 02 fd f3 06 04 33
       15 79 38 2 -9 -22 -20 3 25 13 2 -3 -13 6 4 51
000040 d8 28 e8 2f f7 01 20 d9 13 d1 a1 ef fc 21 18 31
       -40 40 -24 47 -9 1 32 -39 19 -47 -95 -17 -4 33 24 49
000050 09 00 07 23 06 41 df 06 ee c8 fb 20 ea 3c fb 31
       9 0 7 35 6 65 -33 6 -18 -56 -5 32 -22 60 -5 49
000060 51 b2 1c 15 42 1b 13 92 fb 09 02 22 de aa 0b db
       81 -78 28 21 66 27 19 -110 -5 9 2 34 -34 -86 11 -37
000070 0f 81 05 fc 6e 38 15 b1 e3 ee 22 eb 10 e0 3d f8
       15 -127 5 -4 110 56 21 -79 -29 -18 34 -21 16 -32 61 -8
000080 29 a2 f2 25 f3 ef fe b0 da c1 c0 f3 f0 1d 70 05
       41 -94 -14 37 -13 -17 -2 -80 -38 -63 -64 -13 -16 29 112 5
000090 d4 28 15 30 08 d0 d2 c0 1a b9 e9 4a fa b0 fb df
       -44 40 21 48 8 -48 -46 -64 26 -71 -23 74 -6 -80 -5 -33
0000a0 a7 17 11 ea 13 e6 1f 0f 13 04 e2 e2 1f eb 40 e7
       -89 23 17 -22 19 -26 31 15 19 4 -30 -30 31 -21 64 -25
0000b0 46 f2 14 30 3e f3 e1 0b e1 d6 23 fe 18 dd fe 42
       70 -14 20 48 62 -13 -31 11 -31 -42 35 -2 24 -35 -2 66
0000c0 fd da 33 ef f8 fd 88 00 be 8f f4 0d 40 c2 01 cf
       -3 -38 51 -17 -8 -3 -120 0 -66 -113 -12 13 64 -62 1 -49
0000d0 e5 60 1d 14 d8 f0 c1 19 cd 04 f5 c7 37 b6 26 d9
       -27 96 29 20 -40 -16 -63 25 -51 4 -11 -57 55 -74 38 -39
0000e0 ca c1 c7 2f f3 ee 08 41 ef ed d9 f8 2f 04 0b de
       -54 -63 -57 47 -13 -18 8 65 -17 -19 -39 -8 47 4 11 -34
0000f0 39 9e 6a e4 63 1a fc 2d c7 81 f4 47 20 d3 03 04
       57 -98 106 -28 99 26 -4 45 -57 -127 -12 71 32 -45 3 4

sequential/conv2d_1/Conv2D i1 [16, 3, 3, 8]
000000 31 8a 2d a0 ba 3d 1e f4 de 39 aa e4 14 40 d1 d0
       49 -118 45 -96 -70 61 30 -12 -34 57 -86 -28 20 64 -47 -48
000010 f6 d8 b0 30 44 da 4d 1d 74 f0 4d a7 04 24 e2 97
       -10 -40 -80 48 68 -38 77 29 116 -16 77 -89 4 36 -30 -105
000020 57 37 10 32 d3 e9 55 cd 95 c9 91 5a 08 f1 da b7
       87 55 16 50 -45 -23 85 -51 -107 -55 -111 90 8 -15 -38 -73
000030 54 d0 73 18 27 df bc a8 4a 28 b8 e5 0e 0c d4 c5
       84 -48 115 24 39 -33 -68 -88 74 40 -72 -27 14 12 -44 -59
000040 81 50 fe 20 d3 c8 16 32 cb 53 2d 0e f9 de eb 9e
       -127 80 -2 32 -45 -56 22 50 -53 83 45 14 -7 -34 -21 -98
000050 3c d8 d8 e1 03 26 1c cd 41 e7 e7 f1 16 f9 dc f2
       60 -40 -40 -31 3 38 28 -51 65 -25 -25 -15 22 -7 -36 -14
000060 f7 57 c7 17 e9 bb 12 cb db 28 64 e0 06 fb f8 81
       -9 87 -57 23 -23 -69 18 -53 -37 40 100 -32 6 -5 -8 -127
000070 e6 c0 41 f6 25 01 c5 d6 35 d1 ef b4 da 0d 06 d8
       -26 -64 65 -10 37 1 -59 -42 53 -47 -17 -76 -38 13 6 -40
000080 ff f6 18 e1 f2 fb 11 fe dd 0a e6 19 f5 37 3f e2
       -1 -10 24 -31 -14 -5 17 -2 -35 10 -26 25 -11 55 63 -30
000090 65 5b 11 5c f5 b8 81 31 be c4 17 ee 50 1c 27 3b
       101 91 17 92 -11 -72 -127 49 -66 -60 23 -18 80 28 39 59
0000a0 d6 39 d3 45 b6 f2 de 19 a9 aa c8 45 67 63 90 2a
       -42 57 -45 69 -74 -14 -34 25 -87 -86 -56 69 103 99 -112 42
0000b0 1e 5a 71 10 13 b0 be c4 a2 12 27 f6 f5 d2 30 fe
       30 90 113 16 19 -80 -66 -60 -94 18 39 -10 -11 -46 48 -2
0000c0 d6 7c 33 e3 29 3f c0 c9 b4 c1 9d 55 fd 30 c1 34
       -42 124 51 -29 41 63 -64 -55 -76 -63 -99 85 -3 48 -63 52
0000d0 55 e3 e5 cd fc a5 43 12 1e 2f 0e 1b 11 f5 fc 33
       85 -29 -27 -51 -4 -91 67 18 30 47 14 27 17 -11 -4 51
0000e0 d6 7f b1 ec de dd fa 12 ff 58 14 fe 27 e0 32 0e
       -42 127 -79 -20 -34 -35 -6 18 -1 88 20 -2 39 -32 50 14
0000f0 ed 4a c2 32 24 ec d9 2c cb 5c 9c de de 14 29 9d
       -19 74 -62 50 36 -20 -39 44 -53 92 -100 -34 -34 20 41 -99

sequential/conv2d/Conv2D f4 [8, 5, 5, 3]
000000 36 54 10 3e 4e 72 24 bd b3 8a c1 bd e5 0a d0 bd
       0.14094624 -0.040148072 -0.09450283 -0.10158328
000010 0c 58 99 3d a2 ec 11 3c cc ff 22 be 62 02 8f 3c
       0.07487497 0.008906515 -0.15917891 0.01745719
000020 12 17 f2 3c b5 b1 fa bd cb b5 39 bc 45 5c 18 3d
       0.029552016 -0.12240926 -0.011334847 0.03719737
000030 97 ce 89 3c 0c 2f 5f bd 31 e9 ba bc a8 80 be bd
       0.016822143 -0.054488227 -0.022816272 -0.09301883
000040 00 6a 36 3c da 1b 13 3e 45 de c0 bd 0a da 2a 3e
       0.011133671 0.14366093 -0.094173945 0.16684738
000050 cf e9 2f 3e 19 28 c1 bc 0c c5 19 3e 5a 40 1e 3d
       0.17179035 -0.02357869 0.15016574 0.03863559
000060 1f 64 df bc 39 d4 12 3e 09 63 0c 3e 5c ff a0 3d
       -0.027269421 0.14338769 0.13709654 0.07861206
000070 84 19 23 bd 48 ff 0c 3d 01 99 d4 bd 80 59 77 3d
       -0.039819255 0.034423143 -0.10380746 0.06038809
000080 e7 ba 0d 3e 31 7b 90 bd ca 3c 7f 3e 19 bb ca 3d
       0.13840829 -0.07054747 0.24925533 0.09898967
000090 de 11 e5 38 fa 55 a3 3e 36 29 f6 3d 17 79 ec bd
       0.00010922899 0.31901532 0.12019579 -0.115465336
0000a0 49 1d 18 3e b1 2d a3 3d 62 f9 10 be 62 0a 47 3e
       0.14854921 0.07967699 -0.14157632 0.19437554
0000b0 65 97 b1 3d 0b b1 84 be 94 65 c1 3d ca 32 be 3d
       0.08671454 -0.25916323 0.094432026 0.09287031
0000c0 45 d3 66 be 04 b1 96 3e e6 fd da 3d 59 71 23 be
       -0.2254153 0.29431927 0.106929585 -0.15961207
0000d0 8b 03 cc 3e 50 c3 06 3e 5b 21 1d be 36 bc 99 3e
       0.39846453 0.13160443 -0.15344755 0.30026406
0000e0 dd 5b 21 3d ef e9 1a bd 0b e5 1d bb ad fd 03 3d
       0.03939425 -0.037820753 -0.002409282 0.032224346
0000f0 8b 21 88 bd 02 7e b3 bd c5 7f 9a 3d 59 eb 04 be
       -0.06647023 -0.087642685 0.07543901 -0.12980403
000100 43 97 1c bd bf e5 df 3d e6 ee 72 be ba 7e 93 3e
       -0.038230192 0.109324925 -0.23723945 0.28807622
000110 ab 2a f5 3a d8 eb ef bd ca 79 8b 3e 69 78 58 bd
       0.0018704733 -0.117149055 0.27241355 -0.052849207
000120 4b 42 6a be 11 25 d8 3d b7 80 65 3d 3d be 71 3d
       -0.22876851 0.10553945 0.056030955 0.059019316
000130 16 eb c9 bd d2 79 03 bc 36 3a 3b 3d bf ec 65 bc
       -0.09859292 -0.00802465 0.04570981 -0.014033495
000140 9f 97 4f 3d 04 07 e8 3b e9 e6 f5 3d 44 2c e6 3d
       0.050681707 0.0070809145 0.12006933 0.11238912
000150 50 44 4d be 46 21 d7 3c 71 7c d1 3d f9 40 9b bd
       -0.2004559 0.026260983 0.102288134 -0.07580752
000160 ad fa d4 3d a7 a3 b1 bd 24 3b 9c 3c 80 75 22 3c
       0.10399375 -0.08673792 0.01907117 0.0099157095
000170 ba 7f 8d bd 15 07 b7 bd 3d 4b 23 3c 47 8c 3b bc
       -0.069091275 -0.08936898 0.009966669 -0.011447019
000180 0b 89 5c be c4 36 61 3d 85 c9 d2 bc dd 09 6e be
       -0.21536653 0.05498387 -0.025730858 -0.2324595
000190 95 df 83 3d ab 69 93 3c 68 76 68 be d1 8a 45 ba
       0.06439129 0.017994722 -0.22701418 -0.0007535639
0001a0 75 37 7c 3e 18 81 b3 bd 6a b1 c1 3d f1 8a e7 3d
       0.2463053 -0.08764857 0.09457667 0.11305798
0001b0 8f b7 11 be e5 83 83 bc 2a 31 81 3d fd f2 96 be
       -0.14230178 -0.016054103 0.063082054 -0.2948226
0001c0 21 15 39 bd 12 16 58 3e dd 9d bb be 7a dd 0a 3e
       -0.045186166 0.21102169 -0.36643878 0.13561049
0001d0 b6 18 09 3e b6 02 98 be 0b d9 26 3d 8f d0 f5 3d
       0.13388333 -0.29689568 0.040734332 0.1200267
0001e0 05 c6 b7 3d 2e c5 a9 3d 5f 8f 85 bd 6d 45 ca bd
       0.08973316 0.08289562 -0.065214865 -0.09876523
0001f0 8b 5a 9c bd f3 35 d4 3d 3f a0 f0 bb b4 6f 14 3e
       -0.07634457 0.103618525 -0.0073433216 0.14495736
000200 59 ff 05 3d a2 02 a9 be e5 89 8a bd 0a f4 42 3e
       0.03271422 -0.3300982 -0.067645825 0.19038406
000210 b8 90 a6 be f4 0f 18 be 94 75 51 3e d3 21 54 3c
       -0.32532287 -0.14849836 0.20455009 0.012947517
000220 88 5b a4 3b 16 de 5e bd 58 a3 80 3d d0 8d 23 3c
       0.005015794 -0.054411016 0.06281155 0.009982541
000230 46 ff 83 3d 0a 5c 0e 3d 20 cf 1c 3d f3 78 3d bd
       0.06445174 0.034755744 0.038283467 -0.046257924
000240 ef 6b 43 be e1 3e 01 3e 73 02 c4 3d 75 6b 76 be
       -0.19084142 0.12621643 0.0957078 -0.24064429
000250 f8 02 06 3e f6 c8 c2 3d 26 6c a9 3d 43 39 63 bd
       0.1308707 0.095109865 0.08272581 -0.05547453
000260 b1 53 ad bc 5d b3 2a be 48 c0 8d bd bc 21 29 3d
       -0.021158071 -0.16669984 -0.0692144 0.041291937
000270 84 6e 0f be 6a 00 2f 3e ee 1f 7c 3d 5e 15 c6 bd
       -0.14007002 0.17090002 0.061553888 -0.09672044
000280 51 4c f7 3d 58 9c 34 3e 75 9f dd bd f6 33 08 3e
       0.12075103 0.17637765 -0.1082143 0.13301072
000290 a6 cb 58 3e 85 88 b3 3d 61 f9 27 be fa 3a 1f bc
       0.21171436 0.087662734 -0.16403724 -0.009718651
0002a0 b1 22 ec bd 24 c3 e4 3c a9 44 74 3d 2a 4a df 3b
       -0.11530054 0.027925082 0.059635792 0.006814261
0002b0 4f 43 2f 3e bb 20 34 3e 2a 71 30 3d c6 03 98 3e
       0.1711552 0.1759061 0.04307667 0.2969038
0002c0 cd 57 50 3e 82 20 f3 bd 68 7e 84 3e ac f1 b1 bc
       0.20345993 -0.11871435 0.2587769 -0.021721683
0002d0 05 e4 4c 3d 6c 99 ef bd c3 91 09 3d c3 90 9a bd
       0.050022144 -0.11699185 0.033586275 -0.07547142
0002e0 53 63 c5 3b 1a 1f bd bd d7 cc df bb bc d9 35 3e
       0.0060238033 -0.09234448 -0.0068298387 0.1775884
0002f0 5e f5 0a 3e f9 a7 dd 3d 96 de ae 3e 34 b2 eb 3d
       0.13570163 0.10823054 0.34154195 0.11508599
000300 54 a8 2f bc 1b d8 1f 3e b5 8b 33 be 50 fc 99 bd
       -0.010721285 0.15609781 -0.17533763 -0.07518828
000310 a2 61 cd bc ad e7 d0 3d d6 b8 da 3d f4 f5 16 3d
       -0.025070969 0.10200439 0.10679786 0.036855653
000320 a4 47 06 be 61 b0 9b 3d bd 15 22 bd 92 ca 0a 3e
       -0.13113266 0.07602001 -0.039571512 0.13553837
000330 47 a0 1f 3e 00 55 43 3e 66 89 38 bb 8c ea 0a be
       0.15588485 0.19075394 -0.0028158068 -0.13566035
000340 64 05 62 3d 3a 99 a0 bd 14 e0 7d 3d 58 b1 1e bd
       0.055180922 -0.07841726 0.061981276 -0.038743347
000350 b2 f1 8d bc dd 9f 91 3d 3d 1d db bd 68 c5 20 3e
       -0.017327163 0.071105696 -0.10698936 0.15700305
000360 92 83 e9 3d ab 50 c6 bd 0a 2f 6e 3d 69 04 dc 3d
       0.11402048 -0.09683355 0.05815033 0.10743029
000370 99 ae 94 bd f7 54 5c bd 94 2d 39 3d fa f9 30 bc
       -0.07259864 -0.053791966 0.045209482 -0.010801787
000380 bc c3 90 bd dc 94 2d bd 70 16 11 be df d5 ab 3d
       -0.07068583 -0.04237829 -0.14168715 0.08390402
000390 07 95 88 bd 85 e1 05 be de af 88 3d 6a 8d 46 3d
       -0.0666905 -0.1307431 0.06674169 0.048474707
0003a0 21 af f6 3d d4 42 f3 3d 25 da 95 bc ba 9e d8 3d
       0.12045122 0.11877981 -0.018292496 0.1057715
0003b0 21 28 9a 3c 22 8d ed 3c e9 4e 72 3d 8d ec 94 bd
       0.018817963 0.028997961 0.059157286 -0.07271681
0003c0 af 10 ab 3d e2 23 19 be c4 df ff bd 8d 71 b7 bd
       0.083527915 -0.14955094 -0.12493852 -0.08957205
0003d0 ad 26 ea 3d f9 e6 07 be 5c 40 19 be 51 d9 11 be
       0.11433158 -0.13271703 -0.14965957 -0.14243056
0003e0 2e 59 2a bd 97 41 e2 3d 7d 69 e2 bd d2 8a ce 39
       -0.041588955 0.110476665 -0.110552765 0.0003939481
0003f0 32 3f 3f 3d f7 4c ad 3d 18 c1 07 be 38 70 0a 3e
       0.046691127 0.084619455 -0.13257253 0.1351937

dense_1/bias f4 [128]
000000 ce 53 1a 3f 06 51 0d 3f 2b 5a c8 3e a7 e2 f9 3e
       0.60284126 0.55201757 0.39131293 0.48805735
000010 30 7a 19 3f bf 34 25 3f 19 cd f2 3e aa f7 f4 3e
       0.5995207 0.6453361 0.47422102 0.47845203
000020 6a 53 cf 3e 86 b8 de 3e e0 90 e2 3e 64 fd 91 3e
       0.40493327 0.43500155 0.44251156 0.28513634
000030 a2 3b 5d 3e 2f ee 00 3f 37 f7 e3 3e 9c 42 0c 3f
       0.2160478 0.5036344 0.44524547 0.5478914
000040 4a d9 cb 3e 18 b6 91 3e d1 36 ab 3e b3 d8 31 3f
       0.39814216 0.2845924 0.3344026 0.6947128
000050 f7 c2 03 3f 37 99 17 3f 94 61 84 3e a3 89 15 3f
       0.5146937 0.5921816 0.25855696 0.5841314
000060 8c 81 33 3e f3 98 f7 3e 3a 63 ee 3e 17 93 e1 3e
       0.17529887 0.48358878 0.4656008 0.44057533
000070 d1 d5 f1 3e cc ae f0 3e b4 2e d2 3e e7 9c fa 3e
       0.4723344 0.4700836 0.41051257 0.48947832
000080 47 aa 88 3e 16 4c bb 3e e1 ca b3 3e 1e 17 2a 3f
       0.2669241 0.36581486 0.35115722 0.66441524
000090 7a 88 e0 3e 0c 3a 01 3f 91 ba 10 3f 8e 40 b0 3e
       0.43854123 0.504792 0.5653468 0.3442425
0000a0 94 19 a7 3e a4 4d fa 3e 9d 81 d1 3e 30 3e 06 3f
       0.32636702 0.4888736 0.409192 0.5243864
0000b0 c6 29 b0 3e be 43 da 3e 29 42 e7 3e 33 c2 6c 3e
       0.3440687 0.42629808 0.45167664 0.23120956
0000c0 95 8a 03 3f 49 d5 18 3f 62 bd cd 3e c1 6f fb 3e
       0.51383334 0.5970045 0.4018355 0.491087
0000d0 3e ce db 3e ac ae a0 3e 0d ca 15 3f d8 7f 32 3f
       0.42930788 0.31383264 0.5851143 0.69726324
0000e0 18 2c a6 3e 6a 13 e9 3e ec 67 03 3f 74 94 d9 3e
       0.32455516 0.45522624 0.5133045 0.42496073
0000f0 e8 41 92 3e 5b c7 8b 3e ea d6 dd 3e 35 06 8e 3e
       0.28565907 0.27300534 0.4332803 0.2773911
000100 2f 9e a1 3e 5b a5 b8 3e 26 7e bf 3e 31 9c ea 3e
       0.31565997 0.36063656 0.3740093 0.4582229
000110 e2 59 0a 3f 09 70 ca 3e a2 e9 a7 3e 0e 4e 51 3e
       0.540434 0.395386 0.32795435 0.20439932
000120 47 a5 bc 3d 75 a2 b5 3e b7 19 ba 3e 91 24 df 3c
       0.09211212 0.35475507 0.36347744 0.027239116
000130 28 26 9c 3e 97 a5 ce 3e b0 59 d9 3e a3 28 ff 3e
       0.3049786 0.4036071 0.4245124 0.4983569
000140 37 2b d8 3e f8 18 b0 3e 38 74 ee 3e 42 27 a9 3e
       0.4222047 0.3439405 0.46573043 0.33037764
000150 dc ba 9a 3e 04 d7 a2 3e fd ad 26 3f 6d f0 2e 3f
       0.30220687 0.3180467 0.65109235 0.6833561
000160 e3 4f d3 3e e4 16 82 3e 13 ff f9 3e 7a 65 a8 3e
       0.41271886 0.2540809 0.4882742 0.3288992
000170 4d 03 10 3f 77 f5 0d 3f 0f 3b 06 3f 25 07 91 3e
       0.56255037 0.55452675 0.52433866 0.28325763
000180 63 19 26 3f 46 2e 25 3f 38 bc ff 3e 13 dc 21 3f
       0.6488249 0.6452373 0.49948287 0.6322643
000190 89 64 1e 3f 1b 93 d1 3e ad b4 d9 3e 70 44 f7 3e
       0.61872154 0.40932545 0.42520657 0.482944
0001a0 53 f6 f4 3e 28 30 0c 3f 38 54 93 3e ea 32 e8 3e
       0.4784418 0.5476098 0.2877519 0.45351344
0001b0 ae c3 0c 3f 24 0e cd 3e 72 20 ad 3e e6 b6 28 3f
       0.54986084 0.4004985 0.33813816 0.6590408
0001c0 63 64 c8 3e 36 d0 0a 3f 0c 67 c8 3e 15 5a e5 3e
       0.3913909 0.54223955 0.3914112 0.4479529
0001d0 02 aa 19 3f ce 42 a6 3e cb f1 ae 3e 3c 04 1c 3f
       0.60025036 0.32472843 0.34168848 0.6094396
0001e0 eb f7 b9 3e ae 9f 1f 3f c8 eb 4b 3f 77 9f c9 3e
       0.3632196 0.62353027 0.7965665 0.39379475
0001f0 28 85 f6 3e 43 33 b8 3e 9e 70 ea 3e dc e9 20 3f
       0.48148465 0.3597661 0.45789045 0.6285684

dense/bias f4 [128]
000000 d3 f8 2a 3e 59 2a e2 3d b0 c7 d4 3d b3 36 06 3d
       0.16696481 0.110432334 0.1038965 0.03276701
000010 9c 86 22 3e 94 4c 72 3d 5b cd b1 3c 24 1a 2e 3e
       0.15871662 0.05915506 0.021704366 0.1700216
000020 04 2d 88 3d 2a b7 23 3e d8 74 f8 3d 12 b5 a5 bd
       0.06649211 0.1598784 0.12131661 -0.08091177
000030 db 06 2f 3d 0f 44 85 3d 4a ef b2 bd 07 1b 0b 3d
       0.042731147 0.06507122 -0.08737047 0.033961322
000040 11 68 57 3d e4 84 a0 3d 98 99 4b 3d c2 88 f1 3d
       0.05258948 0.07837847 0.049707025 0.117936626
000050 a6 8d 60 3d ab b8 e1 3d 5f 64 e1 3d 4a 55 18 3d
       0.054822586 0.11021551 0.110054724 0.037190713
000060 72 a4 1a bd 4b 68 85 3d dd bf 0d 3e ad 08 4d 3c
       -0.037754484 0.06514033 0.13842721 0.0125142755
000070 a3 0b 1d 3e 77 75 25 3e d8 3d 9b 3d 60 45 e8 3d
       0.1533647 0.1615809 0.07580155 0.11341357
000080 b3 f1 db 3d fd d2 8a 3d 2e d7 22 3d c9 d4 e2 bc
       0.1073946 0.06778524 0.039755993 -0.027689354
000090 72 0b 08 3e 85 e3 d2 bc 30 4b 10 3e 31 13 06 3e
       0.13285616 -0.025743255 0.14091182 0.13093258
0000a0 08 af c6 3d cc 55 33 3d 94 9f 06 3e ca e3 39 3d
       0.09701353 0.043782994 0.13146812 0.045383252
0000b0 26 36 f6 3c 5c 5f cb 3d 2f 85 c9 3d c2 4a 0d 3e
       0.030055117 0.09930298 0.09839856 0.13798049
0000c0 70 6a 96 bd 98 22 ca 3d 88 4e bd 3d f1 d5 63 bc
       -0.0734452 0.098698795 0.09243494 -0.013905988
0000d0 2c b5 b6 3d 86 ac 2d 3d 65 f1 e3 3d 8c eb 04 3e
       0.089212745 0.04240086 0.11130027 0.12980479
0000e0 95 35 2e 3d ea 6e 23 3e a0 06 d0 3d 6b 69 11 3e
       0.04253157 0.15960279 0.101575136 0.1420037
0000f0 71 cb 86 bd 06 ab be 3d e9 73 e7 3b 16 e6 03 3e
       -0.06581772 0.09309964 0.007063378 0.1288074
000100 0a bf 8e 3d 3f ba e6 3d 3a 7c 83 3e d6 2a a1 3d
       0.069700316 0.112659924 0.25680715 0.078694984
000110 bf f2 a7 3c 66 80 c2 3d c6 77 1f 3e da 84 bf 3d
       0.020501493 0.09497146 0.15573034 0.09351511
000120 71 01 1e 3b cf dd ea 3d fb 86 33 bd 4c 14 68 3d
       0.0024109746 0.11468088 -0.0438299 0.05665998
000130 39 96 86 3d 5a 37 21 3e 08 14 b6 3d c8 76 22 bc
       0.065716214 0.15743771 0.088905394 -0.009916015
000140 f4 b9 78 3e b6 81 48 bc 0a 5a 5a 3d 1b cb 0c 3d
       0.24289685 -0.012237957 0.053308524 0.034373384
000150 55 12 d9 bd 45 35 8d 3d ec a9 b4 bd 73 23 30 3e
       -0.105992 0.06894926 -0.088214725 0.17201023
000160 86 2b 33 3e 84 a4 9e bd 12 2e 14 3e 54 d8 de 3d
       0.17497072 -0.077462226 0.144707 0.10881105
000170 86 93 15 bd a5 1e 12 3e 77 83 57 3e a3 de cb bd
       -0.036517642 0.14269502 0.21046244 -0.09954574
000180 f0 b7 bd 3d a6 9f b6 3d f6 c0 87 3e 4c 4f 42 3d
       0.09263599 0.08917169 0.26514405 0.047438905
000190 35 d8 82 3d 34 67 b4 3d 46 09 cd 3d 1f a9 de bd
       0.063888945 0.08808747 0.100115344 -0.10872101
0001a0 0c 5c ac 3b 2a dd 14 ba 4a 82 bb 3d 41 2f b9 bd
       0.0052599963 -0.0005678708 0.0915571 -0.09042216
0001b0 1a ed f7 3d a6 01 20 bd 35 c6 00 3e 98 76 fb 3d
       0.121057704 -0.039064072 0.1257561 0.12278479
0001c0 07 48 83 3d 57 7d 64 bc 84 f0 5e 3e 27 48 be 3b
       0.064102225 -0.013945899 0.21771437 0.005806941
0001d0 50 02 49 3e f4 f0 1b 3e c8 fb b9 3d d6 2e ff 3c
       0.19629788 0.15228635 0.090812266 0.031150263
0001e0 33 90 a4 3d 8d 81 66 3d f8 82 78 bd 8d 57 7c 3d
       0.08035316 0.056275893 -0.060671777 0.061606932
0001f0 52 e4 17 3e 6c eb ce 3c e5 fd ce 3d ca 70 45 3e
       0.14833191 0.025258742 0.1010702 0.19281307

sequential/batch_normalization_5/batchnorm/mul f4 [128]
000000 91 55 8f 3e d1 d2 e0 3e b2 b8 79 3e 6d 3d cf 3e
       0.2799497 0.4391084 0.24386862 0.40476552
000010 d8 01 62 3e 4c 7d 6b 3e fb 29 87 3e 95 11 84 3e
       0.22071016 0.22997016 0.26399216 0.25794664
000020 66 3b 9c 3e c7 dc 55 3e 07 59 4e 3e 75 f6 cf 41
       0.30514067 0.20885001 0.20151149 25.99534
000030 f0 e7 95 3e f2 77 88 3e 04 9b df 41 64 7b 9e 3e
       0.29278517 0.2665401 27.950691 0.30953515
000040 fb c5 c8 3e ba 51 77 3e 59 72 b0 3e 4e 30 69 3e
       0.39213547 0.2415227 0.3446224 0.22772333
000050 cf 27 8f 3e 50 12 6b 3e 77 0e 40 3e a3 e0 79 3e
       0.2796006 0.22956204 0.18755518 0.24402098
000060 14 35 a6 3e b3 c2 64 3e 41 7b 74 3e c5 e3 7a 3e
       0.3246237 0.22339897 0.23875143 0.2450095
000070 6f 70 56 3e 9b 82 55 3e 13 91 31 3e e9 fa 4b 3e
       0.20941328 0.20850603 0.17340498 0.19919933
000080 49 7c 9f 3e 46 b5 6e 3e 54 8b a5 3e 48 f0 98 3e
       0.3114951 0.23311338 0.3233286 0.2987082
000090 ae bc 8b 3e b1 98 94 3e 17 cd 7d 3e d0 48 5d 3e
       0.2729239 0.29022744 0.24785267 0.21609807
0000a0 18 bf 50 3e 68 71 5a 3e de 65 b1 3e bc 75 84 3e
       0.20385396 0.21332324 0.3464803 0.25871074
0000b0 70 e6 93 3e a1 68 6e 3e 31 fd 53 3e 19 87 64 3e
       0.28886747 0.232821 0.20702054 0.2231716
0000c0 dc 5f d1 41 af e6 60 3e 01 ab 8b 3e fe cc a7 3e
       26.171806 0.21962999 0.27278903 0.32773584
0000d0 e8 37 44 3e 65 57 71 3e 9d a1 87 3e b9 9d 91 3e
       0.19161952 0.23568495 0.2649049 0.28440645
0000e0 c5 37 9a 3e f3 d7 62 3e 3f 2d b8 3e cd d1 55 3e
       0.30120674 0.2215269 0.3597202 0.20880814
0000f0 3d 92 ab 3e 49 2a 7e 3e e9 d8 af 3e 08 70 82 3e
       0.33510008 0.24820818 0.34345177 0.25476098
000100 24 7c b1 3e f0 75 90 3e ad 1d 5a 3e 89 8e a6 3e
       0.34665024 0.2821498 0.21300383 0.3253062
000110 95 3f b8 3e bc eb 50 3e b4 2a 6c 3e 4a b3 86 3e
       0.3598601 0.20402426 0.23063165 0.26308662
000120 1d ab 7b 3e 39 d1 54 3e 38 ce a6 3e af 99 4c 3e
       0.24576993 0.20782937 0.32579207 0.199805
000130 e4 26 67 3e a8 d3 7f 3e d6 1d 8e 3e b7 a4 76 3e
       0.2257343 0.24983084 0.27757138 0.24086271
000140 e5 6c 62 3e 9c 2d a3 3e 86 e2 ab 3e 42 e4 85 3e
       0.22111852 0.31870735 0.3357126 0.2615071
000150 64 63 d9 41 40 28 7c 3e 8c 57 e7 41 ae 4a 60 3e
       27.17353 0.24624729 28.917747 0.21903488
000160 2c 48 aa 3e dc fc ac 3e 31 07 44 3e ac 6f 54 3e
       0.33258188 0.33786666 0.19143368 0.20745724
000170 9b 70 a1 3e 2a 4e 3f 3e 8c 64 51 3e cd 2f e1 41
       0.31531224 0.18682161 0.20448512 28.14834
000180 d5 36 a0 3e 37 92 6d 3e 71 95 30 3e df b5 54 3e
       0.31291834 0.23200308 0.17244507 0.20772503
000190 0a f3 97 3e 81 2b 4b 3e 44 dc 5a 3e f0 a9 e5 41
       0.29677612 0.19840814 0.21373087 28.707977
0001a0 c6 f1 75 3e df 16 96 3e 79 8c 5f 3e 84 52 ea 41
       0.2401801 0.29314324 0.2183093 29.29029
0001b0 5a 12 5b 3e ad 0f b5 3e b1 39 57 3e 0c 4b 8f 3e
       0.2139372 0.35363522 0.21018101 0.27986944
0001c0 6e 90 86 3e 50 69 99 3e d5 89 46 3e 87 8e 9e 3e
       0.26282066 0.2996316 0.19388516 0.30968115
0001d0 68 05 5f 3e 07 ee 6a 3e a0 61 50 3e 44 44 db 3e
       0.21779406 0.22942363 0.20349741 0.4282552
0001e0 30 5a 96 3e 1c 46 b6 3e ec e1 ea 41 c8 0e bf 3e
       0.29365683 0.35600364 29.360313 0.37315965
0001f0 22 b5 77 3e f8 88 80 3e 23 8a 49 3e 2d a7 a6 3e
       0.2419019 0.251045 0.19681601 0.3254942

sequential/batch_normalization_5/batchnorm/sub f4 [128]
000000 a9 9f 2a bf 7c 15 07 bf 98 12 35 bf da 4a ef be
       -0.6664987 -0.5276716 -0.70731497 -0.46736795
000010 ec 15 59 bf f2 41 0c bf b3 37 33 bf a9 93 2b bf
       -0.84799075 -0.54788125 -0.70006865 -0.67022187
000020 e8 eb 41 bf 1a 31 6d bf 22 8e 20 bf df a7 a0 be
       -0.7575059 -0.9265305 -0.6271688 -0.31378075
000030 d1 84 35 bf ea b4 15 bf dc 9b 9d be ee 33 06 bf
       -0.70905787 -0.5847918 -0.30782974 -0.5242299
000040 ba 1f 26 bf 08 5e 2c bf 1a 3e 2b bf 5d 47 51 bf
       -0.6489216 -0.6733098 -0.66891634 -0.81749517
000050 f9 91 0d bf 17 d3 3d bf ad 33 75 bf 12 e5 38 bf
       -0.5530086 -0.7415022 -0.95781976 -0.72224534
000060 22 e3 1b bf 12 04 2a bf 48 f9 34 bf a2 35 8f be
       -0.6089345 -0.6641246 -0.70692873 -0.27970606
000070 0e ab 20 bf 22 82 28 bf cf 6d 58 bf 00 6f 70 bf
       -0.6276101 -0.65823567 -0.84542555 -0.9391937
000080 75 b0 2c bf 12 c5 9c bf ab 0c 44 bf 6f 4f 24 bf
       -0.6745675 -1.2247641 -0.7658183 -0.64183706
000090 15 e5 85 bf c9 8f d0 be 89 35 1f bf aa c4 3c bf
       -1.0460535 -0.407347 -0.62191063 -0.73737586
0000a0 f8 fd 6c bf c4 40 44 bf 67 4e 40 bf 5d fe 3c bf
       -0.92575026 -0.76661325 -0.7511963 -0.7382563
0000b0 66 4a 1c bf 50 7e 28 bf b4 31 33 bf c1 13 71 bf
       -0.61051023 -0.6581774 -0.69997716 -0.9417077
0000c0 d7 76 52 be dc c8 6f bf 12 53 24 bf 85 3a 06 bf
       -0.20553146 -0.9366586 -0.64189255 -0.52433044
0000d0 79 4d 5d bf fb 77 4f bf bb 6c 1f bf b2 f2 0c bf
       -0.8644634 -0.8104245 -0.62275285 -0.55057824
0000e0 f8 74 0e bf 47 4d 4b bf 16 0d ef be 6d 4a 84 bf
       -0.5564723 -0.7941479 -0.4668967 -1.0335213
0000f0 3d 31 3e bf 8b 6e 38 bf a8 fc fc be c2 e9 6a bf
       -0.7429388 -0.72043675 -0.4941151 -0.91762936
000100 b1 26 0f bf e6 68 17 bf 44 67 87 bf 7c 00 2d bf
       -0.55918413 -0.5914444 -1.0578389 -0.67578864
000110 53 64 0a bf 6d 65 84 bf 76 1d 59 bf 82 d6 59 bf
       -0.5405933 -1.0343453 -0.8481058 -0.8509294
000120 55 8f 26 bf ed 9e 3f bf f3 89 e6 be 86 bc 36 bf
       -0.6506246 -0.74851876 -0.45027122 -0.71381414
000130 b0 4a 17 bf 0e 6c 86 bf c5 0d 4d bf 00 29 51 bf
       -0.5909834 -1.0501726 -0.80099136 -0.81703186
000140 3d 40 7a bf 22 2d c7 be f8 78 1d bf 40 28 3a bf
       -0.9775427 -0.3890162 -0.6151271 -0.72717667
000150 d2 89 ef be 23 9a 5d bf a2 c1 87 be 26 9d 7e bf
       -0.46784836 -0.8656332 -0.26514918 -0.9945854
000160 7c e7 23 bf da 41 33 bf dd e3 93 bf 6d c4 46 bf
       -0.6402509 -0.70022357 -1.1553913 -0.7764347
000170 77 72 02 bf 66 8e 5a bf 86 a4 59 bf 4d ca 1d be
       -0.5095591 -0.8537353 -0.8501667 -0.15409203
000180 5a 6a 26 bf 6e 2f 68 bf 11 f5 81 bf c8 11 7a bf
       -0.6500603 -0.9069737 -1.0152913 -0.9768338
000190 80 42 19 bf c5 0c 92 bf 36 32 31 bf 0f 64 63 be
       -0.59867096 -1.1410147 -0.6921724 -0.22206138
0001a0 84 dd 68 bf d4 d4 39 bf b4 60 72 bf ea 45 b6 3e
       -0.90963006 -0.72590375 -0.9467881 0.35600215
0001b0 28 11 34 bf 88 1a 07 bf e4 f5 6e bf 9a 0d 3a bf
       -0.7033868 -0.5277486 -0.9334395 -0.72677004
0001c0 67 8a 56 bf 6a 76 0e bf 23 98 57 bf 9e 24 ec be
       -0.83804935 -0.55649436 -0.8421652 -0.46121687
0001d0 34 8d 62 bf d5 72 6e bf 1a ba 4a bf 11 ac 04 bf
       -0.8849671 -0.9314397 -0.7919022 -0.5182505
0001e0 dc bc f9 be dd f4 38 bf 92 e2 cd 3e 08 09 01 bf
       -0.487769 -0.7224863 0.40211922 -0.50404406
0001f0 58 ad 7a bf 91 80 4b bf 37 9d 6b bf ce 10 32 bf
       -0.9792075 -0.7949305 -0.92036766 -0.6955689

sequential/batch_normalization_6/batchnorm/mul f4 [128]
000000 f8 18 15 3f 26 35 27 3f d0 23 3c 3f 7c f7 18 3f
       0.58241224 0.65315473 0.73492146 0.5975263
000010 a7 1e 1d 3f 46 a5 0b 3f b6 ba 20 3f 81 89 0d 3f
       0.61374897 0.5454906 0.627849 0.5528794
000020 22 11 24 3f 8c d2 3f 3f b4 2c 18 3f 99 a3 1e 3f
       0.6408864 0.74930644 0.5944321 0.6196838
000030 e0 8a 12 3f 5b 38 08 3f a9 55 25 3f 1d cb 27 3f
       0.57243156 0.5321099 0.6458383 0.655443
000040 10 1c 1d 3f 7b 71 23 3f ee 67 35 3f 86 09 07 3f
       0.61370945 0.6384503 0.7086171 0.52748907
000050 6c e2 0f 3f d8 74 11 3f 96 f8 2d 3f 20 42 3b 3f
       0.5620487 0.56818914 0.6795744 0.73147774
000060 9f e8 32 3f f1 36 2e 3f 89 5a 22 3f 44 b8 09 3f
       0.698862 0.68052584 0.63419396 0.5379679
000070 d3 b7 1f 3f 47 e0 24 3f 03 43 29 3f 73 9e 18 3f
       0.6238987 0.6440472 0.66117877 0.59616774
000080 c5 8b 2c 3f eb ef 09 3f 36 4f 10 3f 55 ec 06 3f
       0.6740077 0.5388171 0.56370866 0.52704364
000090 07 d7 1d 3f 8a ad 28 3f f2 b3 14 3f 0e 0a 0d 3f
       0.6165623 0.658898 0.58087075 0.5509347
0000a0 0a 25 02 3f 1d e6 13 3f 6b 3f 24 3f 7f 19 15 3f
       0.5083777 0.57773 0.6415927 0.5824203
0000b0 43 6c 0d 3f d5 46 15 3f 20 d0 2b 3f ff 23 09 3f
       0.5524332 0.58311206 0.6711445 0.5357055
0000c0 eb 7c 07 3f d4 dc 10 3f ff ad 17 3f 27 e1 34 3f
       0.52924985 0.56586957 0.5924987 0.70656055
0000d0 5d 6a 18 3f 1f 2c 25 3f f7 07 14 3f a2 bc 14 3f
       0.595373 0.6452045 0.57824653 0.5810033
0000e0 2c 44 2f 3f 5b 41 1e 3f a8 26 2c 3f ce f9 1b 3f
       0.684634 0.61818475 0.67246485 0.60928047
0000f0 fa 58 1f 3f 02 56 17 3f 17 8a 17 3f 3b f5 21 3f
       0.6224514 0.5911561 0.59195083 0.63264817
000100 36 50 25 3f b3 ce 0e 3f 92 90 17 3f 5d 02 29 3f
       0.6457552 0.5578415 0.5920497 0.6601923
000110 d4 41 0e 3f 8d 68 27 3f 49 d1 17 3f 0c 47 0e 3f
       0.55569196 0.65393907 0.5930372 0.5557716
000120 fb 97 32 3f 01 81 19 3f ce da 2c 3f 68 9f 1d 3f
       0.69763154 0.5996247 0.6752137 0.6157136
000130 06 13 1d 3f 5c 8d 16 3f bf b8 12 3f 63 4b 0f 3f
       0.6135715 0.5880945 0.5731315 0.55974406
000140 9d ec 4a 3f 38 83 2e 3f e4 ac 1b 3f 9c b5 23 3f
       0.79267293 0.68168974 0.60810685 0.6394899
000150 90 6c 27 3f 3d 1a 22 3f 74 f2 32 3f 07 c6 06 3f
       0.6540003 0.63321286 0.69901204 0.52645916
000160 d5 0e 10 3f 5a a1 2e 3f e6 64 1c 3f ff 70 33 3f
       0.5627263 0.6821495 0.6109146 0.70094293
000170 40 7d 22 3f ac 53 13 3f ad 97 0a 3f d0 a0 1d 3f
       0.63472366 0.5754955 0.5413769 0.61573505
000180 14 dd 14 3f 12 47 15 3f 14 9f 0e 3f f2 fc 18 3f
       0.5814984 0.5831157 0.55711484 0.59760964
000190 cc db 2a 3f f2 d4 1d 3f 60 d6 2c 3f f7 fe 2f 3f
       0.66741633 0.61653054 0.6751461 0.6874842
0001a0 35 d4 1a 3f 63 6d 23 3f cd c0 20 3f 4b cd 23 3f
       0.6048005 0.63838786 0.6279419 0.6398513
0001b0 0b 6e 04 3f 60 1c 19 3f c9 49 29 3f 64 fd 15 3f
       0.5173041 0.5980892 0.6612821 0.5858977
0001c0 5d 12 19 3f 09 a5 0d 3f 77 13 15 3f 45 70 16 3f
       0.59793645 0.5532995 0.58232826 0.5876506
0001d0 8a f6 1e 3f ab a7 1f 3f 6e de 1c 3f 5d 33 fd 3e
       0.6209494 0.62365216 0.612769 0.4945325
0001e0 4d 35 18 3f 08 79 0b 3f 4b 20 1e 3f de e6 18 3f
       0.5945633 0.54481554 0.61768025 0.59727275
0001f0 2c ca 1b 3f 44 6a 22 3f fb c4 15 3f 2e 47 12 3f
       0.60855365 0.634434 0.58503693 0.5713986

sequential/batch_normalization/FusedBatchNormV3 f4 [8]
000000 eb 63 10 42 d4 83 15 42 26 60 01 42 af 75 fb 41
       36.097576 37.37874 32.343895 31.432463
000010 ba e2 fa 41 13 80 fe 41 11 67 fb 41 7a 75 0f 42
       31.360706 31.812536 31.425325 35.864723

sequential/batch_normalization/FusedBatchNormV31 f4 [8]
000000 c2 af 10 bf 7f 1a b4 bf a2 8d 95 c0 e8 71 24 bc
       -0.56518185 -1.4070586 -4.673539 -0.010036923
000010 fa 0a 9e bb f5 ac e5 b9 01 8b f0 ba df 3a ac bf
       -0.004823086 -0.00043807147 -0.0018351973 -1.3455466

sequential/batch_normalization_1/FusedBatchNormV3 f4 [16]
000000 bb c4 95 41 b0 20 c4 41 4c ff e8 41 38 bb d9 41
       18.72106 24.51596 29.124657 27.216415
000010 80 22 a3 41 c5 08 c7 41 c1 3f 90 41 ab 9e ba 41
       20.391846 24.879282 18.03113 23.327475
000020 ec 5f a3 41 7c 6a de 41 46 06 a7 41 af 94 a8 41
       20.421837 27.801994 20.878063 21.0726
000030 de 6a db 41 d3 ba da 41 e2 a7 c0 41 06 1a a7 41
       27.427181 27.341223 24.081974 20.887707

sequential/batch_normalization_1/FusedBatchNormV31 f4 [16]
000000 be f0 7b bf e7 82 dd bf 65 28 13 be 53 ab bc bd
       -0.9841422 -1.7305573 -0.14370878 -0.09212365
000010 f5 eb f7 bf 49 d0 ad be 17 f7 cb be b9 96 90 be
       -1.9368883 -0.3394797 -0.39836952 -0.28239992
000020 17 0a 61 bf d9 4a 6d 3e 51 5c 69 be 44 26 69 bf
       -0.8790602 0.23173083 -0.22789122 -0.91074014
000030 c2 ae 42 be 68 21 77 bd 1d 12 9a be ff 5b c8 bf
       -0.19011977 -0.060334593 -0.30091944 -1.5653075

sequential/batch_normalization_2/FusedBatchNormV3 f4 [16]
000000 6b 34 bb 3f 08 2c 0a 40 ad 9c 09 40 fe 42 d5 3f
       1.4625372 2.1589375 2.1501877 1.6661069
000010 fe ba ba 3f 24 3f c2 3f ac ff 0c 40 bd 8b 08 40
       1.4588315 1.5175519 2.203105 2.133529
000020 7b d7 bb 3f 6c 9f 9b 3f 6e 17 fb 3f 4d aa fe 3f
       1.4675134 1.2158027 1.9616525 1.9895722
000030 94 49 a5 3f 90 40 02 40 8c 92 d9 3f 19 e7 3d 40
       1.2913079 2.0351906 1.6997848 2.96723

sequential/batch_normalization_2/FusedBatchNormV31 f4 [16]
000000 80 00 d9 be 28 4e 01 bf 57 bf ab be 37 d5 46 bf
       -0.42383194 -0.5050988 -0.33544418 -0.7766909
000010 60 8f b1 be f5 8e 31 bf bb 64 ec be c0 8b 18 bf
       -0.346797 -0.6935876 -0.461706 -0.5958824
000020 22 86 ad be 3b 72 5c bf ec 54 be bd ce ca 14 bf
       -0.33891398 -0.861118 -0.09293541 -0.58121955
000030 05 9f ad be 0e 34 f8 be 14 3b f1 be c9 c3 d1 be
       -0.33910385 -0.48477215 -0.47115386 -0.40969685

sequential/batch_normalization_3/FusedBatchNormV3 f4 [32]
000000 51 1b 06 40 31 52 8a 3f 49 7e 9b 3f b8 40 54 3f
       2.0954173 1.0806333 1.2147914 0.8291125
000010 4d ee c5 3f cf 38 93 3f cc 64 94 3f c6 46 1e 3f
       1.5463349 1.1501712 1.1593261 0.6182674
000020 b3 ee 83 3f fa 69 2e 3f c4 e3 1a 3f b4 35 84 3f
       1.030722 0.6813046 0.6050379 1.0328889
000030 6b 61 77 3f 0b 25 32 3f bf ff 84 3f 31 b7 95 3f
       0.96633023 0.69587773 1.0390548 1.169653
000040 25 da 04 40 da c0 8d 3f 67 97 c1 3f df 78 c0 3f
       2.0758145 1.1074479 1.5124329 1.5036887
000050 34 99 c1 3f bd a9 87 3f f7 00 c3 3f 2a a4 1f 3f
       1.5124879 1.0598675 1.523467 0.6235987
000060 6f 64 9c 3f b3 29 ce 3f 51 b4 4f 3f ba 96 77 3f
       1.221815 1.6106476 0.81134516 0.96714365
000070 45 e6 a4 3f 5f b1 83 3f cb 7a 78 3f 32 60 40 3f
       1.2882773 1.0288504 0.9706237 0.7514678

sequential/batch_normalization_3/FusedBatchNormV31 f4 [32]
000000 5e d7 03 bf ec 77 4e bf d0 af bb be 1c 2a 3c be
       -0.515005 -0.80651736 -0.36657572 -0.18375438
000010 38 10 16 bd 00 1c ce bd 20 d3 17 bd b7 95 94 be
       -0.03663656 -0.10063934 -0.03706658 -0.29020473
000020 f3 8f 05 bf 6b 84 0c bf 84 f4 e4 be 0f cd 06 bf
       -0.52172774 -0.54889554 -0.447178 -0.52656645
000030 f3 b2 de be 87 23 19 bf 1d 55 01 bf d8 b5 48 bf
       -0.43495902 -0.59819835 -0.505205 -0.7840247
000040 01 32 a2 be 70 51 31 3d 66 2d 68 be de 21 f5 bd
       -0.31678775 0.043290555 -0.22673568 -0.1196935
000050 8a e2 b7 be 44 69 b4 be c0 65 2c bc 84 a8 3e be
       -0.35915023 -0.3523656 -0.010522306 -0.18618971
000060 83 db 8e be 10 43 c0 be 25 0d b0 be 2c b6 b6 bd
       -0.2790185 -0.37551165 -0.34385028 -0.08921465
000070 00 9b 5b bb 72 39 a0 be c8 76 26 bf b3 77 a2 be
       -0.0033509135 -0.31293827 -0.65024996 -0.31731948

sequential/batch_normalization_4/FusedBatchNormV3 f4 [32]
000000 dc 93 ab 3f 69 e0 d9 3f 23 3f 82 3f 32 bf f5 3f
       1.3404498 1.702161 1.0175518 1.9198973
000010 43 19 ac 3f 02 af 97 3f b3 d6 c4 3f 07 cd c6 3f
       1.3445209 1.1850283 1.5378021 1.5531319
000020 88 94 94 3f c7 5f c2 3f eb ea d9 3f ee a5 8d 3f
       1.1607828 1.5185479 1.7024816 1.1066263
000030 b5 77 ab 3f 32 0b 97 3f 2f f7 f4 3f 43 5c a1 3f
       1.3395907 1.1800292 1.9137934 1.2606281
000040 89 ec 06 40 a5 25 af 3f d2 d9 be 3f 86 06 03 40
       2.108187 1.3683363 1.4910223 2.0472732
000050 97 d0 d0 3f 6f 2d 9f 3f fa e1 b2 3f e0 7e be 3f
       1.6313657 1.243574 1.3975213 1.4882469
000060 f4 bd 9c 3f ae 45 b6 3f 48 91 05 40 6f 41 00 40
       1.2245469 1.4240015 2.0869923 2.0039937
000070 c1 dd 85 3f 51 1c 00 40 fd 34 cd 3f 45 de 9b 3f
       1.0458299 2.0017283 1.6031796 1.2177206

sequential/batch_normalization_4/FusedBatchNormV31 f4 [32]
000000 09 03 9f be 2a 65 ba be fb 34 9b be 34 02 ac be
       -0.31057003 -0.36405307 -0.30313858 -0.3359543
000010 af 71 c3 be e8 3d c9 be 74 0d ff be a3 12 a3 be
       -0.3817267 -0.39305043 -0.4981495 -0.31850156
000020 e3 d6 ab be c9 8e ba be 38 0b bc be a2 00 7e be
       -0.33562383 -0.3643706 -0.3672731 -0.24804929
000030 c4 c7 04 bf c5 d2 b4 be 53 2d 8b be e2 19 5a be
       -0.5186732 -0.35317054 -0.27183017 -0.21298936
000040 ec 46 86 be 35 41 0b bf 98 8d fb be e6 f3 ac be
       -0.26225984 -0.54396373 -0.49131465 -0.3377983
000050 92 1f 83 be ae a4 0b bf 90 eb 08 bf 0a 1b c4 be
       -0.25610024 -0.54548156 -0.5348444 -0.3830188
000060 b3 57 de be 94 9b 4a be c1 92 bb be 7e 99 5f be
       -0.43426284 -0.19785911 -0.36635402 -0.21835896
000070 4f b5 d1 be e4 f1 56 be 7d fa 9b be 71 bd aa be
       -0.4095864 -0.20990711 -0.30464545 -0.33347657

sequential/dense/MatMul i1 [128, 512] scale=0.0040753298 zero_point=0
000000 fb fd 01 0a f5 06 ff 09 04 07 ec f3 fb 0c ea f2
       -0.020376649 -0.012225989 0.0040753298 0.040753298 -0.044828627 0.024451979 -0.0040753298 0.036677968 0.016301319 0.028527308 -0.081506595 -0.052979287 -0.020376649 0.048903957 -0.089657255 -0.057054617
000010 05 e8 0d f8 09 fd fa 05 ed 21 05 07 1b 0f 04 0d
       0.020376649 -0.097807914 0.052979287 -0.032602638 0.036677968 -0.012225989 -0.024451979 0.020376649 -0.07743126 0.13448589 0.020376649 0.028527308 0.1100339 0.061129946 0.016301319 0.052979287
000020 ff f2 00 11 09 f2 fc f9 e7 05 fe f9 f3 0b 0c fd
       -0.0040753298 -0.057054617 0.0 0.06928061 0.036677968 -0.057054617 -0.016301319 -0.028527308 -0.10188325 0.020376649 -0.0081506595 -0.028527308 -0.052979287 0.044828627 0.048903957 -0.012225989
000030 e2 1a 0c fd f0 ed f5 29 e4 22 1d d9 05 0b de 0a
       -0.12225989 0.10595857 0.048903957 -0.012225989 -0.065205276 -0.07743126 -0.044828627 0.16708852 -0.11410923 0.13856122 0.11818457 -0.15893786 0.020376649 0.044828627 -0.13856122 0.040753298
000040 dd 13 06 0f 09 16 ed 00 ef fb e4 1c f4 07 13 08
       -0.14263654 0.07743126 0.024451979 0.061129946 0.036677968 0.089657255 -0.07743126 0.0 -0.06928061 -0.020376649 -0.11410923 0.11410923 -0.048903957 0.028527308 0.07743126 0.032602638
000050 1d 11 03 0f f9 cc 0d 07 00 0a f0 f5 1f 0e 1b fc
       0.11818457 0.06928061 0.012225989 0.061129946 -0.028527308 -0.21191715 0.052979287 0.028527308 0.0 0.040753298 -0.065205276 -0.044828627 0.12633522 0.057054617 0.1100339 -0.016301319
000060 f8 03 fc e3 1b 2a ba e4 05 eb 0c 2b fb e9 f9 0f
       -0.032602638 0.012225989 -0.016301319 -0.11818457 0.1100339 0.17116386 -0.28527308 -0.11410923 0.020376649 -0.08558193 0.048903957 0.17523918 -0.020376649 -0.09373258 -0.028527308 0.061129946
000070 0a 01 02 e7 01 ef 00 00 fb 1e 0e 07 13 ef f5 f1
       0.040753298 0.0040753298 0.0081506595 -0.10188325 0.0040753298 -0.06928061 0.0 0.0 -0.020376649 0.12225989 0.057054617 0.028527308 0.07743126 -0.06928061 -0.044828627 -0.061129946
000080 07 fa 03 fd 00 10 da 05 17 05 23 0f 06 1a ed 21
       0.028527308 -0.024451979 0.012225989 -0.012225989 0.0 0.065205276 -0.15486252 0.020376649 0.09373258 0.020376649 0.14263654 0.061129946 0.024451979 0.10595857 -0.07743126 0.13448589
000090 fa 09 e5 fd f6 07 0e 12 0c f3 f3 d7 df 0c 20 11
       -0.024451979 0.036677968 -0.1100339 -0.012225989 -0.040753298 0.028527308 0.057054617 0.073355936 0.048903957 -0.052979287 -0.052979287 -0.16708852 -0.13448589 0.048903957 0.13041055 0.06928061
0000a0 10 0c 08 05 26 f1 f4 10 2a 48 fa 07 ee 08 da ed
       0.065205276 0.048903957 0.032602638 0.020376649 0.15486252 -0.061129946 -0.048903957 0.065205276 0.17116386 0.29342374 -0.024451979 0.028527308 -0.073355936 0.032602638 -0.15486252 -0.07743126
0000b0 bf 10 f0 08 10 05 ff ed 12 1c e8 07 d5 13 f8 f3
       -0.26489642 0.065205276 -0.065205276 0.032602638 0.065205276 0.020376649 -0.0040753298 -0.07743126 0.073355936 0.11410923 -0.097807914 0.028527308 -0.17523918 0.07743126 -0.032602638 -0.052979287
0000c0 09 17 0d fe 31 08 e9 20 fd f5 02 07 ea 0b 22 15
       0.036677968 0.09373258 0.052979287 -0.0081506595 0.19969116 0.032602638 -0.09373258 0.13041055 -0.012225989 -0.044828627 0.0081506595 0.028527308 -0.089657255 0.044828627 0.13856122 0.08558193
0000d0 de 28 ff f8 d3 fd 0d 21 01 18 0c 07 ff 03 c5 fa
       -0.13856122 0.16301319 -0.0040753298 -0.032602638 -0.18338984 -0.012225989 0.052979287 0.13448589 0.0040753298 0.097807914 0.048903957 0.028527308 -0.0040753298 0.012225989 -0.24044445 -0.024451979
0000e0 fb 04 09 10 0d ff ea ef f8 14 1d fe e3 f2 1f 14
       -0.020376649 0.016301319 0.036677968 0.065205276 0.052979287 -0.0040753298 -0.089657255 -0.06928061 -0.032602638 0.081506595 0.11818457 -0.0081506595 -0.11818457 -0.057054617 0.12633522 0.081506595
0000f0 24 e7 ec 01 10 05 37 ff f8 01 14 12 05 f3 d6 1b
       0.14671187 -0.10188325 -0.081506595 0.0040753298 0.065205276 0.020376649 0.22414313 -0.0040753298 -0.032602638 0.0040753298 0.081506595 0.073355936 0.020376649 -0.052979287 -0.17116386 0.1100339

sequential/dense_1/MatMul i1 [128, 128] scale=0.0044093537 zero_point=0
000000 e1 07 f2 06 dd fb e0 c6 19 28 09 e9 02 13 0d 0b
       -0.13668996 0.030865476 -0.06173095 0.026456121 -0.15432738 -0.022046769 -0.14109932 -0.25574252 0.11023384 0.17637415 0.039684184 -0.101415135 0.008818707 0.08377772 0.057321597 0.048502892
000010 db f4 f9 15 13 15 f2 09 e6 08 03 09 e2 f7 04 e9
       -0.1631461 -0.052912243 -0.030865476 0.09259643 0.08377772 0.09259643 -0.06173095 0.039684184 -0.114643194 0.03527483 0.013228061 0.039684184 -0.13228062 -0.039684184 0.017637415 -0.101415135
000020 c0 b9 25 e3 07 07 02 fd c9 ec 19 e5 04 17 0d e3
       -0.28219864 -0.31306413 0.1631461 -0.12787126 0.030865476 0.030865476 0.008818707 -0.013228061 -0.24251446 -0.088187076 0.11023384 -0.11905255 0.017637415 0.101415135 0.057321597 -0.12787126
000030 e8 f7 19 0e eb f7 f6 0f 2b 08 1c 00 d3 f7 fe e0
       -0.105824485 -0.039684184 0.11023384 0.06173095 -0.09259643 -0.039684184 -0.044093538 0.06614031 0.18960221 0.03527483 0.1234619 0.0 -0.19842091 -0.039684184 -0.008818707 -0.14109932
000040 06 f2 cc b7 24 15 e5 20 05 0a ee df ec fd 3a de
       0.026456121 -0.06173095 -0.22928639 -0.3218828 0.15873674 0.09259643 -0.11905255 0.14109932 0.022046769 0.044093538 -0.07936837 -0.14550868 -0.088187076 -0.013228061 0.25574252 -0.14991802
000050 d7 f0 13 12 fa 0f c7 dc f7 b3 0c 0c 01 25 13 04
       -0.1807835 -0.07054966 0.08377772 0.07936837 -0.026456121 0.06614031 -0.25133315 -0.15873674 -0.039684184 -0.33952025 0.052912243 0.052912243 0.0044093537 0.1631461 0.08377772 0.017637415
000060 e8 fa d7 e3 04 cf f4 bd cb 0e 32 2b 11 12 f2 0c
       -0.105824485 -0.026456121 -0.1807835 -0.12787126 0.017637415 -0.21605833 -0.052912243 -0.2954267 -0.23369575 0.06173095 0.22046769 0.18960221 0.07495901 0.07936837 -0.06173095 0.052912243
000070 e0 11 f3 08 17 02 00 c9 f8 0f 2c fd 25 cb 16 d7
       -0.14109932 0.07495901 -0.057321597 0.03527483 0.101415135 0.008818707 0.0 -0.24251446 -0.03527483 0.06614031 0.19401157 -0.013228061 0.1631461 -0.23369575 0.097005785 -0.1807835
000080 df f9 f1 fe eb 29 1c f1 ea 06 15 f5 c6 16 e2 11
       -0.14550868 -0.030865476 -0.06614031 -0.008818707 -0.09259643 0.1807835 0.1234619 -0.06614031 -0.097005785 0.026456121 0.09259643 -0.048502892 -0.25574252 0.097005785 -0.13228062 0.07495901
000090 f5 fd fb ef eb f1 09 0b f2 03 f8 20 d8 fc e9 e3
       -0.048502892 -0.013228061 -0.022046769 -0.07495901 -0.09259643 -0.06614031 0.039684184 0.048502892 -0.06173095 0.013228061 -0.03527483 0.14109932 -0.17637415 -0.017637415 -0.101415135 -0.12787126
0000a0 ef c1 f4 f7 fb fd 26 fd d6 07 13 c9 f7 0f f2 b3
       -0.07495901 -0.2777893 -0.052912243 -0.039684184 -0.022046769 -0.013228061 0.16755544 -0.013228061 -0.18519285 0.030865476 0.08377772 -0.24251446 -0.039684184 0.06614031 -0.06173095 -0.33952025
0000b0 dc ff 1d fe d8 d7 06 12 33 07 f4 ec fa fe fd 1e
       -0.15873674 -0.0044093537 0.12787126 -0.008818707 -0.17637415 -0.1807835 0.026456121 0.07936837 0.22487704 0.030865476 -0.052912243 -0.088187076 -0.026456121 -0.008818707 -0.013228061 0.13228062
0000c0 01 1b dc fd f8 1a cc 1a e8 20 13 e7 1d 03 f9 fd
       0.0044093537 0.11905255 -0.15873674 -0.013228061 -0.03527483 0.114643194 -0.22928639 0.114643194 -0.105824485 0.14109932 0.08377772 -0.11023384 0.12787126 0.013228061 -0.030865476 -0.013228061
0000d0 eb 32 dd 0e e5 f9 e6 17 14 01 03 30 27 e4 17 11
       -0.09259643 0.22046769 -0.15432738 0.06173095 -0.11905255 -0.030865476 -0.114643194 0.101415135 0.088187076 0.0044093537 0.013228061 0.21164897 0.1719648 -0.1234619 0.101415135 0.07495901
0000e0 d2 0a 03 bb f2 f1 c8 fa c7 d4 17 fb e9 fe 0a 04
       -0.20283027 0.044093538 0.013228061 -0.3042454 -0.06173095 -0.06614031 -0.2469238 -0.026456121 -0.25133315 -0.19401157 0.101415135 -0.022046769 -0.101415135 -0.008818707 0.044093538 0.017637415
0000f0 fa 0b 04 08 21 12 e9 b9 0a 16 27 02 06 c4 21 09
       -0.026456121 0.048502892 0.017637415 0.03527483 0.14550868 0.07936837 -0.101415135 -0.31306413 0.044093538 0.097005785 0.1719648 0.008818707 0.026456121 -0.26456124 0.14550868 0.039684184
